element_identification_model.pt (torch, 88900 bytes, 8 tensors)

network.0.weight f4 [128, 77]
1.357883e-39 0.10528182 -0.19542225 0.23195122 0.049768105 -0.17830831 -0.048135992 0.3040502
0.38175878 -0.049561486 0.8375505 -0.5409627 -0.15264066 0.06926168 0.21931309 0.7542511
-0.013250342 0.15989706 0.73623544 0.19380578 -0.4511559 0.053915583 -0.13863797 -0.46479857
0.035669595 -0.019010002 -0.20235248 -0.09903727 -0.07608222 0.35808805 0.5137423 0.022073133
0.19983356 -0.22062153 -0.1804978 0.5436568 -1.0590914 -0.49578574 -0.26917922 0.09183866
0.18983242 0.0063060187 0.10167502 -0.09415491 0.11093041 0.22058427 0.13887566 0.11986468
0.07411936 0.12530078 0.046795905 0.10238819 0.13506438 0.19818759 0.6020226 0.020519191
-0.24523672 0.13582906 0.049348626 0.042457465 0.04854773 0.005304339 0.04164655 -0.57673925
0.12708037 -0.20561077 0.12774989 0.05089625 0.1024217 0.022735292 -0.38110018 0.32346234
0.27641734 0.0707937 0.0046514375 -1.2783723 0.029119026 7.963915e-38 0.08431887 -0.07385813
-0.05263159 0.06415397 0.07769947 0.04226202 -0.0891034 -0.021570109 0.04792291 -0.120926216
-0.0062899357 -0.19156176 0.041998472 -0.054901827 -0.07635052 0.027287643 -0.074258044 -0.25210693
-0.019804565 -0.14104813 -0.07041356 -0.30536518 0.07070333 0.022942308 -0.10101871 0.012931117
-0.033211943 -0.08871315 -0.013236815 -0.10733349 -0.0014092377 -0.012628633 -0.0003808075 -0.012618092
-0.009121793 0.0917432 0.07083172 -0.035645243 0.015384445 0.012585839 -0.005836399 0.057718784
-0.041451495 -0.068159275 0.13184787 0.066592194 -0.05615513 0.0060465843 0.043480556 0.013888889
-0.041507527 0.018451512 -0.017903475 -0.08527269 -0.005652062 0.015629973 -0.062119354 0.021376336
0.02969324 0.019879919 0.047475655 -0.017102567 0.07530353 0.015300131 -0.01213202 0.0187864
0.03972302 -0.034732815 0.047644656 0.031180488 -0.054067537 -0.045671996 0.061057743 0.0401606
0.09870644 0.014214518 -5.547892e-39 0.01589875 0.0072259507 -0.0031348742 0.015492539 0.024736939
0.018051935 0.0025681648 0.02502592 0.0019147979 0.00059482816 0.017557131 0.017332094 -0.0060828826
-0.006923237 7.3102914e-05 0.009506924 -0.010937823 0.008512286 -0.006273543 -0.009149684 -0.013073014
0.012393879 0.013225225 0.002570055 -0.008647249 0.0022755887 -0.018457912 -0.0019147164 0.0041794553
-0.003535587 -0.010013019 0.0049001323 -0.006242885 -0.0054142135 -0.011158957 0.0031208508 -0.004125894
0.0061176443 0.019483251 0.02183021 -0.013738385 0.0068986234 -0.006977626 -0.012266432 -0.0005408449
0.0009056743 -0.007501184 0.038761593 0.019251978 -0.008283677 -0.0055855014 0.014427208 -0.015136989
-0.008364814 -0.009256689 -0.019321647 0.0012124861 0.017893136 -0.00906699 0.013714131 -0.0071680774
0.019026969 0.010375246 -0.010129568 -0.016947225 -0.008034787 0.02496014 -0.008147791 -0.006390612
-0.013324496 -0.0049991934 0.0035453883 0.0112510715 -0.00702732 0.011303777 0.033573437 5.4225133e-38
-0.14288889 0.1869198 -0.11957087 0.04140307 0.10238722 -0.02803437 -0.2654368 -0.074951604
0.1245939 -0.35054585 0.46767998 0.24092428 -0.09071116 -0.19444612 -0.38791502 0.15096292
-0.1561641 -0.14393443 0.08952031 0.3338064 -0.06998878 0.08351146 0.13083336 -0.065664954
00000000: 3ac9 0e00 ff9d d73d c51c 48be 9f84 6d3e
00000010: a4d9 4b3d 7496 36be 3f2a 45bd 78ac 9b3e
00000020: e375 c33e fc00 4bbd b669 563f 887c 0abf
00000030: d54d 1cbe 11d9 8d3d 9c93 603e 9a16 413f
00000040: f617 59bc 0ebc 233e ed79 3c3f 0675 463e
00000050: e8fd e6be 96d6 5c3d 1df7 0dbe 14fa edbe
00000060: 481a 123d ddba 9bbc 7d35 4fbe 0dd4 cabd
00000070: ffd0 9bbd 5157 b73e 9e84 033f b7d2 b43c
00000080: 2ba1 4c3e 9cea 61be 6ad4 38be 182d 0b3f
00000090: 4f90 87bf a1d7 fdbe dcd1 89be e815 bc3d
000000a0: 6e63 423e b8a2 ce3b fe3a d03d 4ad4 c0bd
000000b0: 7c2f e33d d8e0 613e 6c35 0e3e 9d7b f53d
000000c0: e4cb 973d d94e 003e 10ad 3f3d e6b0 d13d
000000d0: 514e 0a3e b0f1 4a3e 271e 1a3f dd17 a83c
000000e0: 561f 7bbe c616 0b3e c921 4a3d e1e7 2d3d
000000f0: fcd9 463d 05d0 ad3b 9395 2a3d 2fa5 13bf
00000100: 5b21 023e a18b 52be ded0 023e 9678 503d
00000110: 78c2 d13d 5d3f ba3c 901f c3be db9c a53e
00000120: 9386 8d3e 4afc 903d 166b 983b b4a1 a3bf
00000130: 068b ee3c 63cc d801 5faf ac3d ee42 97bd
00000140: 3994 57bd 2863 833d e620 9f3d f11a 2d3d
00000150: d87b b6bd ccb3 b0bc d04a 443d 2aa8 f7bd
00000160: ce1b cebb c428 44be 9706 2c3d bde0 60bd
00000170: a95d 9cbd 568a df3c 9a14 98bd 2914 81be
00000180: 2f3d a2bc ec6e 10be fc34 90bd d358 9cbe
00000190: e8cc 903d 82f1 bb3c e6e2 cebd 09dd 533c
000001a0: 3f09 08bd 3daf b5bd 3adf 58bc a9d1 dbbd
000001b0: 2cb6 b8ba 53e8 4ebc 1ea7 c7b9 1dbc 4ebc
000001c0: 9373 15bc dce3 bb3d 3910 913d bf00 12bd
000001d0: 0a0f 7c3c d634 4e3c 433f bfbb 886a 6c3d
000001e0: 0bc9 29bd 1797 8bbd 2103 073e 7d61 883d
000001f0: ec02 66bd 6d22 c63b ab18 323d 398e 633c
00000200: cc03 2abd a027 973c 4faa 92bc 73a3 aebd
00000210: ef34 b9bb 6e0a 803c dd70 7ebd 6d1d af3c
00000220: 3d3f f33c 36db a23c d575 423d af1a 8cbc
00000230: bd38 9a3d 67ad 7a3c 61c5 46bc f0e5 993c
00000240: 9bb4 223d ff43 0ebd 0b27 433d 396e ff3c
00000250: ec75 5dbd 8f12 3bbd af17 7a3d 717f 243d
00000260: 9a26 ca3d 02e4 683c 4469 3c80 183e 823c
00000270: abc7 ec3b 7672 4dbb 6bd4 7d3c 1fa5 ca3c
00000280: a7e1 933c a84e 283b 2803 cd3c f5f9 fa3a
00000290: 3eee 1b3a f9d3 8f3c 09fc 8d3c eb52 c7bb
000002a0: 52dc e2bb d44e 9938 eec2 1b3c 8e34 33bc
000002b0: 1d77 0b3c 4b92 cdbb 8ee8 15bc 3230 56bc
000002c0: b20f 4b3c 9dae 583c 5e6e 283b 31ad 0dbc
000002d0: 0b22 153b 0c35 97bc 39f7 faba d0f3 883b
000002e0: 4fb5 67bb a50d 24bc 4a91 a03b 1d91 ccbb
000002f0: b769 b1bb 0fd4 36bc 3087 4c3b 8232 87bb
00000300: 8576 c83b 579b 9f3c 45d5 b23c f716 61bc
00000310: d90d e23b 92a4 e4bb 25f9 48bc 7dc7 0dba
00000320: c66a 6d3a 7ecc f5bb 7ac4 1e3d 53b6 9d3c
00000330: 42b8 07bc 9506 b7bb 1960 6c3c 2201 78bc
00000340: 930c 09bc 5ea9 17bc 6e48 9ebc 48ec 9e3a
00000350: a094 923c b68d 14bc 3cb1 603c 31e2 eabb
00000360: 72de 9b3c f0fc 293c 7df6 25bc e8d4 8abc
00000370: 57a4 03bc 3579 cc3c 507e 05bc 5768 d1bb
00000380: fd4e 5abc 46d0 a3bb bf59 683b 6a56 383c
00000390: 6f45 e6bb 7a33 393c 4d84 093d 679d 9301
000003a0: 7751 12be e767 3f3e 93e1 f4bd 4496 293d
000003b0: 64b0 d13d 56a8 e5bc 55e7 87be 3a80 99bd
000003c0: 162b ff3d bf7a b3be c073 ef3e dbb4 763e
000003d0: c6c6 b9bd e21c 47be cc9c c6be 0696 1a3e
000003e0: 7be9 1fbe 8c63 13be 6d56 b73d ace8 aa3e
000003f0: 4756 8fbd 0e08 ab3d 2ef9 053e 597b 86bd

network.0.bias f4 [128]
-8.0050384e-08 -1.4753321e-07 2.8092049e-09 1.279503e-07 9.393226e-08 2.267444e-07 3.5267106e-38 -7.481561e-09
-2.2406755e-07 -8.917948e-08 1.3381989e-08 -5.8331437e-08 -5.5265104e-38 -2.728982e-07 -2.4406617e-08 4.8756167e-08
1.882985e-08 3.299464e-08 -1.3531499e-09 -8.6552255e-08 -2.2067435e-07 -2.8563331e-08 2.4437158e-08 -2.8828074e-08
3.107021e-08 1.1433072e-07 1.0828731e-07 1.9067114e-08 -3.3013717e-07 -4.9308166e-09 -1.0083076e-07 -9.765407e-08
1.41875045e-08 -4.639438e-09 1.3236538e-06 1.8771958e-08 6.1214706e-08 1.0605381e-08 -1.5246364e-08 -4.1381647e-08
-2.2005408e-07 8.971348e-08 1.3261207e-08 -1.4887662e-08 3.5316415e-08 1.0693809e-07 4.927492e-07 3.2544527e-08
2.2973898e-08 -3.235502e-08 1.7292867e-07 -2.1358112e-08 8.341602e-08 2.44369e-08 -5.9160925e-08 8.188851e-09
-1.8930215e-06 -1.2009423e-07 1.3574869e-08 -4.4100217e-09 9.3992156e-08 4.6009933e-07 -4.8312265e-09 -3.1632588e-09
-6.68088e-08 -9.312598e-07 -9.6441106e-08 8.737348e-09 2.063057e-09 -8.5435055e-08 9.32992e-09 -1.3423038e-07
7.902594e-08 3.4561087e-38 -8.015236e-08 7.540051e-09 -1.8105187e-08 -2.7522095e-08 1.3305172e-08 2.0496297e-07
2.7266807e-08 1.2118257e-06 3.0448273e-08 -8.410593e-39 -2.4274756e-08 1.0602725e-07 1.0914871e-06 -2.8496655e-07
-3.3301558e-07 3.7121808e-07 1.8290477e-08 -1.1648116e-08 3.0842475e-08 1.333958e-06 -5.6574144e-08 -2.5409142e-07
7.2161306e-08 3.839153e-08 6.522125e-08 -9.483765e-08 -2.7243079e-08 -3.1417194e-08 -4.1882953e-07 -6.997778e-08
7.876358e-06 -2.712157e-08 1.2656931e-08 -8.4200724e-07 1.1792681e-09 8.048426e-09 1.7493611e-06 3.0586325e-08
2.2433844e-06 3.9564005e-09 2.5457823e-06 -5.3890872e-08 6.846326e-08 -5.141124e-09 -1.8244076e-08 -3.8495511e-07
-2.5203516e-08 2.7697059e-08 -2.3617599e-08 2.4732054e-07 -3.5923275e-08 1.0861577e-08 -4.5010967e-08 -5.1671414e-09
00000000: 2ae8 abb3 9f69 1eb4 0e0c 4131 b662 0934
00000010: ceb7 c933 0777 7334 2c03 4001 4188 00b2
00000020: 3897 70b4 f082 bfb3 9ce6 6532 1888 7ab3
00000030: 2872 9681 d882 92b4 b8a6 d1b2 f967 5133
00000040: 47bf a132 feb5 0d33 bbf9 b9b0 9bde b9b3
00000050: 81f2 6cb4 6e5b f5b2 e1e9 d132 9ba1 f7b2
00000060: 0f72 0533 fa85 f533 948b e833 07c9 a332
00000070: b53d b1b4 ec6b a9b1 4c88 d8b3 e5b5 d1b3
00000080: 4ebd 7332 ee68 9fb1 66a8 b135 f93f a132
00000090: 2475 8333 f532 3632 1cf7 82b2 9abb 31b3
000000a0: 0148 6cb4 82a8 c033 68d3 6332 a1c4 7fb2
000000b0: cfae 1733 d6a5 e533 7845 0435 16c7 0b33
000000c0: 2358 c532 b9f6 0ab3 45ae 3934 fc76 b7b2
000000d0: 7122 b333 50e9 d132 2018 7eb3 f3ae 0c32
000000e0: b913 feb5 40f3 00b4 e836 6932 f686 97b1
000000f0: bcd8 c933 9203 f734 ebff a5b1 a360 59b1
00000100: 8778 8fb3 b0fb 79b5 0f1b cfb3 431b 1632
00000110: afc5 0d31 6b78 b7b3 6c49 2032 f720 10b4
00000120: f8b4 a933 202b 3c01 3a20 acb3 7f89 0132
00000130: ba85 9bb2 ba69 ecb2 c494 6432 cb13 5c34
00000140: 5838 ea32 04a6 a235 3bc6 0233 5095 5b80
00000150: c184 d0b2 19b1 e333 367f 9235 81fd 98b4
00000160: 50c9 b2b4 d34b c734 2f1d 9d32 f51c 48b2
00000170: a977 0433 730a b335 eefb 72b3 0f6a 88b4
00000180: 19f7 9a33 efe3 2433 c30f 8c33 8da9 cbb3
00000190: 2a04 eab2 92ef 06b3 7edb e0b4 b146 96b3
000001a0: b324 0437 f7f8 e8b2 c571 5932 4c06 62b5
000001b0: cf13 a230 5a45 0a32 97cb ea35 055e 0333
000001c0: 0d8d 1636 def0 8731 35d8 2a36 a475 67b3
000001d0: 1306 9333 cea5 b0b1 26b7 9cb2 d4ab ceb4
000001e0: 1e7f d8b2 7aea ed32 a6df cab2 7ac7 8434
000001f0: 0f4a 1ab3 b999 3a32 1552 41b3 a88a b1b1

network.1.weight f4 [128]
1.6000254 0.64887893 0.14229737 1.1404126 1.3831455 1.0419407 9.384748e-12 0.7784858
1.4333535 1.4690913 0.87961304 1.2247031 1.37195575e-05 1.2857047 0.98657423 0.86660856
1.4098319 1.1701156 0.3451118 1.1042365 1.0401182 1.3873463 0.8638622 0.9813579
1.4108976 1.6684493 1.200193 1.8689631 0.59717286 0.3215463 1.4284121 1.0313277
1.0353967 1.4780469 1.3237352 0.9684604 1.9020147 0.66502565 0.33539143 0.64875114
1.0849876 1.54522 1.3786924 0.29777297 1.3067366 0.9168116 1.5304649 0.9700649
0.85827106 1.6128386 0.66290826 1.2839531 1.0409821 1.4537181 1.7319189 0.5875302
0.96692055 1.1651145 1.4255396 1.2748828 1.3060375 1.6434392 0.50140995 1.0390809
1.4889972 1.6003232 1.4173727 0.52151793 0.52222747 2.0397575 1.0068011 1.0865884
1.3127935 1.4387589e-06 0.9802996 0.31979826 1.1888833 0.58735883 1.5210696 0.7114156
1.4576406 1.3429835 1.5547004 5.5434924e-07 0.56562424 1.1567798 1.4833328 1.0208837
1.6735944 0.9322106 1.259392 0.15623653 1.5095267 1.2567393 1.1852995 1.5042561
1.0226597 0.490041 0.8392355 1.3646872 1.1050783 0.89482194 1.4636955 1.4170009
1.1885943 0.99024814 0.9169542 0.76768595 1.7291704 1.089482 1.5811825 0.8693814
1.3435068 1.0131605 1.6030134 1.0415454 0.5647769 1.4508646 0.6069004 1.1435205
1.5967904 1.4749992 1.1908543 1.7261366 1.8839684 0.747293 1.2803018 0.75733745
00000000: a2cd cc3f ee1c 263f 67b6 113e 0af9 913f
00000010: e90a b13f 505e 853f 2619 252d d84a 473f
00000020: 2178 b73f 2f0b bc3f 522e 613f 12c3 9c3f
00000030: 0d2d 6637 f991 a43f 2190 7c3f 0fda 5d3f
00000040: 5f75 b43f 59c6 953f 7eb2 b03e 9f57 8d3f
00000050: 9822 853f 9094 b13f 1326 5d3f 453a 7b3f
00000060: 4b98 b43f bf8f d53f ed9f 993f 2f3a ef3f
00000070: 52e0 183f b7a1 a43e 35d6 b63f 8c02 843f
00000080: e187 843f a430 bd3f 2870 a93f 05ed 773f
00000090: 3875 f33f 1f3f 2a3f 6db8 ab3e 8e14 263f
000000a0: e0e0 8a3f c5c9 c53f fe78 b03f b375 983e
000000b0: 2543 a73f 2ab4 6a3f 46e6 c33f 2c56 783f
000000c0: a7b7 5b3f 7f71 ce3f 5bb4 293f 9358 a43f
000000d0: e73e 853f 6f13 ba3f 85af dd3f 6168 163f
000000e0: 1b88 773f 7922 953f 1578 b63f 5c2f a33f
000000f0: 3d2c a73f 375c d23f 675c 003f 9a00 853f
00000100: 7697 be3f 64d7 cc3f 786c b53f 3382 053f
00000110: b3b0 053f 638b 0240 dcde 803f 5415 8b3f
00000120: 9e09 a83f 611b c135 eaf4 7a3f 99bc a33e
00000130: 542d 983f 265d 163f 69b2 c23f 551f 363f
00000140: f893 ba3f e2e6 ab3f 6c00 c73f 97ce 1435
00000150: c0cc 103f 5c11 943f d9dd bd3f 51ac 823f
00000160: 5738 d63f 5ba5 6e3f c233 a13f 78fc 1f3e
00000170: 2c38 c13f d5dc a03f e5b7 973f 778b c03f
00000180: 83e6 823f a7e6 fa3e 23d8 563f 12ae ae3f
00000190: 3573 8d3f 0d13 653f 605a bb3f 4960 b53f
000001a0: dc23 983f e780 7d3f 83bd 6a3f 1187 443f
000001b0: 7555 dd3f 2574 8b3f 3064 ca3f c88f 5e3f
000001c0: 08f8 ab3f 3eaf 813f 8b2f cd3f 5c51 853f
000001d0: 3895 103f eeb5 b93f d35d 1b3f e15e 923f
000001e0: a163 cc3f c6cc bc3f ea6d 983f 0bf2 dc3f
000001f0: e025 f13f 984e 3f3f eee0 a33f dee0 413f

network.1.bias f4 [128]
0.4168471 -0.17828768 -0.07261924 0.9010415 0.5655156 0.40574723 -7.151242e-11 -0.3210231
0.6043002 0.06275093 -0.29944298 -0.39837304 -0.00011152696 0.49604675 0.41115552 -0.27978685
-0.5543057 -0.3896293 -0.20284733 0.4303497 0.59605306 -0.28589603 -0.035882715 -0.11723257
-0.67083067 -0.30184138 0.39860728 0.20740667 0.32876617 0.17359404 -1.0214123 -0.3193015
0.21866801 -0.34824952 -0.7093461 0.79127026 0.049156494 -0.06500825 -0.21755399 0.28659052
0.57049924 -0.42690167 -0.82954144 -0.12577109 -0.19005612 0.5830766 0.9429852 -0.3594617
-0.06405202 0.4343788 0.34844285 -0.067848675 0.40517637 -0.1578283 0.01859942 0.030935384
0.5196229 0.18286 0.6248673 0.22246806 -0.37557143 0.72257066 -0.23097181 0.065077975
0.12029466 0.74573255 0.16711928 -0.26380995 0.11168071 -0.07465221 -0.682496 0.6279703
-0.009915401 -2.4767412e-05 -0.27696458 -0.18948764 -0.49290568 -0.22011572 -0.23795912 0.3734614
-0.37398592 0.56316364 0.92962736 -2.4227462e-05 0.106744155 -0.11044918 0.83591 0.17538963
0.43319342 -0.3991233 0.77794784 -0.084478274 -0.2491004 0.5532126 -0.3666528 0.66719115
-0.5726831 0.17529224 0.24892624 -0.6385324 0.34387943 0.099481314 0.7450705 0.6368985
0.598434 -0.55914116 -0.6015865 0.31120852 0.087456286 -0.44128186 0.76048106 0.26393422
0.521018 0.34706417 0.93552166 0.4850699 0.1993623 0.98959464 -0.34597895 0.7442884
0.23097612 0.5019092 0.30773154 -0.48722 -0.458419 -0.17426458 0.75273216 -0.38130677
00000000: fc6c d53e 0c91 36be 65b9 94bd a8aa 663f
00000010: a1c5 103f 1abe cf3e ea41 9dae 245d a4be
00000020: 6bb3 1a3f 8f83 803d 9750 99be 8df7 cbbe
00000030: 95e3 e9b8 d7f9 fd3e fa82 d23e 3940 8fbe
00000040: fae6 0dbf 7e7d c7be 36b7 4fbe cc56 dc3e
00000050: ef96 183f f760 92be c1f9 12bd a117 f0bd
00000060: 8fbb 2bbf f48a 9abe 4116 cc3e 6a62 543e
00000070: 0a54 a83e a3c2 313e a3bd 82bf 7c7b a3be
00000080: 82ea 5f3e c34d b2be b597 35bf b090 4a3f
00000090: 5258 493d 0c23 85bd 79c6 5ebe febb 923e
000000a0: 3d0c 123f db92 dabe d45c 54bf 23ca 00be
000000b0: 129e 42be 8244 153f 7a67 713f 5d0b b8be
000000c0: b52d 83bd e666 de3e 1a67 b23e 3ff4 8abd
000000d0: 4773 cf3e be9d 21be d05d 983c 346c fd3c
000000e0: 0206 053f a73f 3b3e 4ef7 1f3f abce 633e
000000f0: e64a c0be 64fa 383f e083 6cbe 9a47 853d
00000100: 0c5d f63d 54e8 3e3f 5121 2b3e 1912 87be
00000110: dbb8 e43d 42e3 98bd 0fb8 2ebf a9c2 203f
00000120: 3574 22bc 9dc3 cfb7 4dce 8dbe 0c09 42be
00000130: 225e fcbe 0466 61be 8eab 73be 5536 bf3e
00000140: 157b bfbe 7e2b 103f 0ffc 6d3f 143c cbb7
00000150: ae9c da3d 2e33 e2bd 33fe 553f 5799 333e
00000160: 87cb dd3e e459 ccbe 9727 473f f202 adbd
00000170: 2d14 7fbe 579f 0d3f eab9 bbbe 0acd 2a3f
00000180: 5c9b 12bf cf7f 333e 85e6 7e3e dc76 23bf
00000190: f710 b03e dcbc cb3d f1bc 3e3f c80b 233f
000001a0: f832 193f e023 0fbf 9301 1abf b956 9f3e
000001b0: 481c b33d b2ef e1be e3ae 423f 6322 873e
000001c0: 7061 053f 65b2 b13e 597e 6f3f 155b f83e
000001d0: a125 4c3e 1356 7d3f 2724 b1be af89 3e3f
000001e0: 0185 6c3e 1f7d 003f fd8e 9d3e e674 f9be
000001f0: e5b5 eabe 6a72 32be 0eb3 403f a43a c3be

network.1.running_mean f4 [128]
0.107378945 -0.0017700158 -0.0121405125 -0.06539302 -0.03820078 -0.010401964 -1.1240482e-36 0.00782723
0.06843887 0.064440526 0.14322788 0.11556502 -3.9865888e-10 -0.08643247 0.24602757 0.023976468
-0.053752877 -0.101020694 -0.020355584 -0.038381048 0.08791499 -0.14463423 0.08370795 -0.03090515
-0.15834525 0.1966047 -0.0691198 0.13809243 0.070782825 -0.031494714 -0.090409726 -0.025003083
0.0045241863 0.18397701 -0.09827055 -0.07085427 0.07746921 0.0047273748 -0.038108796 -0.053880807
0.061026856 -0.237066 0.17653097 0.06343869 -0.15170732 -0.0055531636 -0.039504185 -0.040401712
0.075530395 0.0746514 0.08893263 0.0668792 0.04437033 -0.11319937 0.035198707 0.0041668527
0.08673668 -0.072724685 0.013420507 -0.07920849 -0.27911144 -0.19595934 -0.052351285 -0.09323211
0.058148026 -0.08288847 0.056447625 -0.006041038 -0.051111996 0.08216208 -0.09129669 0.18963066
-0.15562062 -1.8956034e-10 -0.07086316 -0.015709085 -0.004115075 -0.05364866 0.124905035 0.09914498
-0.0037544277 -0.07662672 0.080727324 -7.1487954e-30 -0.027680445 0.17133814 0.115811676 -0.0913664
-0.121207885 -0.16083574 -0.021858767 0.010024818 -0.08624726 -0.06177814 -0.09227754 0.043965206
-0.047903627 0.011136835 -0.060574956 -0.26664189 -0.018309815 0.010061078 0.035608947 -0.015259683
0.25291443 -0.12321332 -0.08066541 -0.046062093 0.12742773 0.0053602234 -0.061093867 -0.0032677278
-0.12500624 -0.019109406 -0.03962503 -0.058890358 0.044847265 -0.10919355 0.012661118 0.02187913
0.07815506 0.121448666 -0.07847589 -0.2437811 0.08867956 0.06517643 -0.055588074 -0.07991521
00000000: 7ee9 db3d e0ff e7ba 00e9 46bc c7ec 85bd
00000010: 6c78 1cbd 006d 2abc 343f bf83 c83d 003c
00000020: ae29 8c3d 65f9 833d 54aa 123e 5aad ec3d
00000030: 402a dbaf 8203 b1bd a7ee 7b3e 4c6a c43c
00000040: fa2b 5cbd f0e3 cebd c1c0 a6bc 7235 1dbd
00000050: c60c b43d ff1a 14be 136f ab3d cc2c fdbc
00000060: 4225 22be be52 493e af8e 8dbd 1a68 0d3e
00000070: 96f6 903d 9a00 01bd bc28 b9bd 44d3 ccbc
00000080: a03f 943b 7864 3c3e 1242 c9bd 0b1c 91bd
00000090: 2da8 9e3d 18e8 9a3b f817 1cbd 1fb2 5cbd
000000a0: 4cf7 793d 6ec1 72be 89c4 343e 25ec 813d
000000b0: 2a59 1bbe 50f7 b5bb 24cf 21bd 447c 25bd
000000c0: aeaf 9a3d d5e2 983d 5022 b63d f6f7 883d
000000d0: aabd 353d 12d5 e7bd 852c 103d 188a 883b
000000e0: 00a3 b13d aef0 94bd b0e1 5b3c 1038 a2bd
000000f0: b2e7 8ebe 91a9 48be 4d6e 56bd 7af0 bebd
00000100: a02c 6e3d 6ec1 a9bd a035 673d e6f3 c5bb
00000110: d05a 51bd 9844 a83d c2f9 babd 8a2e 423e
00000120: 035b 1fbe 7e6c 50af b420 91bd 57b0 80bc
00000130: c0d7 86bb b3be 5bbd 36ce ff3d 860c cb3d
00000140: d80c 76bb 78ee 9cbd 5e54 a53d abfe 108f
00000150: 1ac2 e2bc 4473 2f3e ac2e ed3d 4f1e bbbd
00000160: d73b f8bd 20b2 24be 2811 b3bc 223f 243c
00000170: 67a2 b0bd 130b 7dbd 02fc bcbd dc14 343d
00000180: 9836 44bd 4677 363c 721d 78bd 4985 88be
00000190: 77fe 95bc 38d7 243c b0da 113d c003 7abc
000001a0: 007e 813e 4457 fcbd e833 a5bd 9bab 3cbd
000001b0: 6a7c 023e d0a4 af3b 903d 7abd 6027 56bb
000001c0: a301 00be 548b 9cbc db4d 22bd 0437 71bd
000001d0: c4b1 373d dea0 dfbd 9470 4f3c dc3b b33c
000001e0: c30f a03d 14ba f83d f8b7 a0bd c1a1 79be
000001f0: a19d b53d 387b 853d 52b0 63bd 96aa a3bd

network.1.running_var f4 [128]
10.457363 1.3888873 0.15811294 9.762137 11.886582 11.357486 6e-45 4.8307815
17.654686 12.25714 7.849127 22.832077 4.8281857e-17 26.8004 37.23612 7.8372955
26.071463 13.064613 0.24074718 8.262449 17.510267 18.604345 3.3408928 4.8948216
19.303532 11.491055 25.910995 5.9435277 5.591991 0.708945 13.992854 8.670544
8.552661 18.307655 16.77039 6.7606864 7.378903 5.5654926 0.60123765 2.8234315
15.795302 22.914957 18.95527 0.63813275 22.234066 15.232332 80.043205 7.8378897
9.4297 6.650554 9.573747 18.244223 9.646092 13.897396 13.778706 1.1477169
12.730869 49.108223 16.731043 19.751469 36.82123 23.130362 1.2424201 3.7653153
9.665935 10.577069 7.6308546 0.7229369 1.1651878 7.0674815 7.700564 19.78439
18.979034 2.5101062e-17 8.44744 0.3563264 13.185783 1.6669341 13.630784 9.637017
1.7948966 23.1683 22.815594 6e-45 1.4555963 16.787853 48.098145 11.257036
17.412281 7.375585 51.687386 0.090758 9.987641 17.451834 2.7803643 21.26668
7.5052266 0.54986393 3.367415 23.33399 9.676629 5.0346065 36.55267 46.456253
69.9614 9.428085 6.829229 6.792621 7.4280634 9.755875 103.997246 5.304601
38.69569 7.3478994 10.892547 19.788792 1.4821548 17.216923 1.6052384 38.798386
9.632945 4.1811028 15.973834 40.99585 27.963156 2.6736124 6.551201 3.470762
00000000: 5c51 2741 0fc7 b13f 5ce8 213e b731 1c41
00000010: 712f 3e41 43b8 3541 0400 0000 c395 9a40
00000020: cc3c 8d41 3f1d 4441 0c2c fb40 18a8 b641
00000030: 28a9 5e24 3867 d641 c9f1 1442 20cb fa40
00000040: 5b92 d041 a808 5141 6e86 763e fe32 0441
00000050: 0715 8c41 b3d5 9441 30d1 5540 61a2 9c40
00000060: a26d 9a41 5cdb 3741 b849 cf41 6131 be40
00000070: 97f1 b240 6b7d 353f bbe2 5f41 8cba 0a41
00000080: b3d7 0841 1476 9241 c229 8641 8b57 d840
00000090: f91f ec40 8418 b240 b6ea 193f 1ab3 3440
000000a0: 8fb9 7c41 d551 b741 65a4 9741 ab5c 233f
000000b0: 5edf b141 a2b7 7341 1f16 a042 fecf fa40
000000c0: 0de0 1641 57d1 d440 112e 1941 2bf4 9141
000000d0: 6556 1a41 bc5b 5e41 9475 5c41 63e8 923f
000000e0: a4b1 4b41 d26e 4442 2dd9 8541 0203 9e41
000000f0: f148 1342 fb0a b941 9f07 9f3f edfa 7040
00000100: aba7 1a41 ad3b 2941 f62f f440 6512 393f
00000110: e024 953f cf28 e240 056b f640 6e46 9e41
00000120: 10d5 9741 3584 e723 b728 0741 6a70 b63e
00000130: f8f8 5241 195e d53f b117 5a41 3931 1a41
00000140: 2cbf e53f ae58 b941 5686 b641 0400 0000
00000150: fb50 ba3f 864d 8641 8064 4042 d21c 3441
00000160: 5a4c 8b41 cb04 ec40 e2bf 4e42 55df b93d
00000170: 61cd 1f41 5b9d 8b41 7df1 3140 2922 aa41
00000180: d12a f040 e2c3 0c3f ba83 5740 03ac ba41
00000190: 79d3 1a41 7f1b a140 ef35 1242 34d3 3942
000001a0: 3dec 8b42 70d9 1641 0b89 da40 275d d940
000001b0: b2b2 ed40 1018 1c41 97fe cf42 4bbf a940
000001c0: 63c8 1a42 fe21 eb40 df47 2e41 724f 9e41
000001d0: 40b7 bd3f 42bc 8941 7478 cd3f 8c31 1b42
000001e0: 8b20 1a41 98cb 8540 d394 7f41 c0fb 2342
000001f0: 8bb4 df41 771c 2b40 70a3 d140 f720 5e40

network.4.weight f4 [77, 128]
-0.14835072 -0.05030531 -0.0053675543 -0.21722029 -0.15494944 -0.14467654 -3.9898712e-38 -0.054652173
-0.11820981 -0.19874218 -0.021080613 -0.043015387 -3.5507886e-38 -0.12561968 -0.07945266 -0.053000875
-0.10771366 -0.05331419 -0.01421981 -0.14535704 -0.12052471 -0.15004538 -0.053233672 -0.09051386
-0.049945742 -0.13375723 -0.114641175 -0.24095543 -0.06255934 -0.09578828 -0.026738843 -0.07764834
-0.19935799 -0.05815422 -0.046495035 -0.3152417 -0.22077172 -0.08336473 -0.0131366905 -0.08855047
-0.106011026 -0.07385098 -0.0194187 -0.0069108224 -0.14578143 -0.25299639 -0.20141104 -0.038339723
-0.039424993 -0.24526078 -0.06426905 -0.08833538 -0.14135133 -0.16883168 -0.22154894 -0.0408094
-0.08941001 -0.08604714 -0.17785403 -0.23908974 -0.09873507 -0.19371682 -0.012724498 -0.15254599
-0.2099368 -0.21403971 -0.18702753 -0.0121304775 -0.07057614 -0.22416794 -0.028046068 -0.114453144
-0.15809536 -3.5476522e-38 -0.048393667 -0.010486616 -0.085257754 -0.046160053 -0.0676568 -0.06933435
-0.13428243 -0.15283188 -0.16653684 1.923336e-38 -0.050514586 -0.037878126 -0.14910528 -0.17848627
-0.19604397 -0.036140803 -0.16953704 -0.002544854 -0.15564215 -0.13691877 -0.0911912 -0.15038075
-0.034185193 -0.10634582 -0.09981309 -0.044659853 -0.107770056 -0.061514698 -0.13346818 -0.16967517
-0.11767697 -0.02791414 -0.012976132 -0.09186649 -0.22367375 -0.035155427 -0.17705259 -0.089556284
-0.135107 -0.11879376 -0.2401308 -0.13935089 -0.06548656 -0.20902896 -0.012110498 -0.16050173
-0.19376113 -0.2352544 -0.2126031 -0.11445853 -0.15698925 -0.028492091 -0.18201402 -0.019239536
-0.14835058 -0.05030536 -0.0053675435 -0.21722046 -0.15494935 -0.14467654 -3.7349346e-38 -0.054652236
-0.11820978 -0.19874199 -0.021080619 -0.043015357 -1.0832431e-38 -0.12561959 -0.079452686 -0.05300093
-0.10771425 -0.053314295 -0.014219929 -0.14535776 -0.12052475 -0.15004511 -0.05323367 -0.090514235
-0.04994579 -0.1337572 -0.11464134 -0.24095532 -0.062559314 -0.095788255 -0.026738754 -0.07764833
-0.19935808 -0.058154244 -0.046494998 -0.31524172 -0.22077139 -0.08336445 -0.013136622 -0.088550024
-0.10601095 -0.0738509 -0.0194187 -0.0069108214 -0.14578192 -0.25299692 -0.20141107 -0.038339727
-0.039424997 -0.24526083 -0.06426897 -0.08833577 -0.14135154 -0.16883174 -0.221549 -0.040809453
-0.08940997 -0.086047076 -0.17785358 -0.23908944 -0.098735124 -0.19371688 -0.012724498 -0.15254617
-0.20993628 -0.21403903 -0.18702795 -0.01213037 -0.070576005 -0.22416781 -0.028046086 -0.11445318
-0.15809527 -3.9540968e-38 -0.048393466 -0.010486586 -0.085257754 -0.046159934 -0.0676568 -0.069334425
-0.13428243 -0.15283208 -0.16653696 -4.2223244e-38 -0.0505144 -0.03787815 -0.14910533 -0.1784862
-0.19604468 -0.036140718 -0.16953702 -0.002544854 -0.15564203 -0.13691893 -0.09119132 -0.15038055
-0.034185234 -0.10634569 -0.09981298 -0.04465996 -0.107769854 -0.061514717 -0.13346815 -0.16967504
-0.11767688 -0.027914163 -0.012976098 -0.09186644 -0.22367382 -0.035155397 -0.1770526 -0.08955625
-0.13510682 -0.118793905 -0.24013044 -0.13935092 -0.065486774 -0.20902939 -0.012110496 -0.16050167
-0.19376113 -0.23525432 -0.21260265 -0.11445838 -0.15698907 -0.028492058 -0.18201372 -0.01923951
00000000: 40e9 17be f10c 4ebd 4fe2 afbb ff6e 5ebe
00000010: 11ab 1ebe 1626 14be b03a 5981 f5da 5fbd
00000020: fc17 f2bd 1283 4bbe 40b1 acbc e730 30bd
00000030: c552 4181 72a2 00be 14b8 a2bd 7217 59bd
00000040: fb98 dcbd fb5f 5abd 35fa 68bc 7ad8 14be
00000050: a9d5 f6bd 7fa5 19be 8d0b 5abd 555f b9bd
00000060: e893 4cbd a8f7 08be fec8 eabd 05bd 76be
00000070: 1c1f 80bd a52c c4bd 6b0b dbbc 1806 9fbd
00000080: 8024 4cbe 1f33 6ebd 9471 3ebd 5c67 a1be
00000090: fb11 62be 21bb aabd 463b 57bc f359 b5bd
000000a0: 4f1c d9bd 2f3f 97bd f713 9fbc 2e74 e2bb
000000b0: ba47 15be be88 81be b23e 4ebe 1d0a 1dbd
000000c0: 1a7c 21bd a425 7bbe 7e9f 83bd 2ee9 b4bd
000000d0: 67be 10be 36e2 2cbe badd 62be c227 27bd
000000e0: 981c b7bd 7c39 b0bd 5e1f 36be f1d3 74be
000000f0: 9d35 cabd b45d 46be 6a7a 50bc 0435 1cbe
00000100: acf9 56be 3a2d 5bbe 2584 3fbe e9be 46bc
00000110: 398a 90bd 488c 65be dec0 e5bc 6966 eabd
00000120: c0e3 21be 0e27 4181 7038 46bd 0ed0 2bbc
00000130: 9e9b aebd 5312 3dbd a68f 8abd 2bff 8dbd
00000140: 5581 09be f67f 1cbe a288 2abe c86e d100
00000150: 62e8 4ebd 1826 1bbd 0eaf 18be 1bc5 36be
00000160: c0bf 48be 6108 14bd 1e9b 2dbe 91c7 26bb
00000170: a860 1fbe 6f34 0cbe 74c2 babd 69fd 19be
00000180: c605 0cbd d6cb d9bd ce6a ccbd 40ed 36bd
00000190: 8cb6 dcbd d6f6 7bbd e2ab 08be 54bf 2dbe
000001a0: a000 f1bd 32ac e4bc d899 54bc 8024 bcbd
000001b0: bb0a 65be 23ff 0fbd 464d 35be 4969 b7bd
000001c0: 7d59 0abe 254a f3bd d9e4 75be 00b2 0ebe
000001d0: d11d 86bd b00b 56be 1c6b 46bc 915a 24be
000001e0: 5169 46be 88e6 70be a1b4 59be 3c69 eabd
000001f0: cac1 20be 3f68 e9bc e261 3abe 3b9c 9dbc
00000200: 37e9 17be fe0c 4ebd 38e2 afbb 0a6f 5ebe
00000210: 0bab 1ebe 1626 14be 6459 4b81 06db 5fbd
00000220: f817 f2bd 0583 4bbe 43b1 acbc df30 30bd
00000230: 69f4 7580 6ca2 00be 17b8 a2bd 8117 59bd
00000240: 4a99 dcbd 1760 5abd b5fa 68bc aad8 14be
00000250: aed5 f6bd 6da5 19be 8c0b 5abd 875f b9bd
00000260: f593 4cbd a6f7 08be 14c9 eabd febc 76be
00000270: 191f 80bd a22c c4bd 3b0b dbbc 1606 9fbd
00000280: 8624 4cbe 2533 6ebd 8a71 3ebd 5d67 a1be
00000290: e511 62be fbba aabd fc3a 57bc b759 b5bd
000002a0: 451c d9bd 243f 97bd f713 9fbc 2c74 e2bb
000002b0: db47 15be d088 81be b43e 4ebe 1e0a 1dbd
000002c0: 1b7c 21bd a825 7bbe 739f 83bd 62e9 b4bd
000002d0: 75be 10be 3ae2 2cbe bedd 62be d027 27bd
000002e0: 931c b7bd 7339 b0bd 401f 36be ddd3 74be
000002f0: a435 cabd b85d 46be 6a7a 50bc 1035 1cbe
00000300: 89f9 56be 0c2d 5bbe 4184 3fbe 76be 46bc
00000310: 278a 90bd 3f8c 65be e8c0 e5bc 6e66 eabd
00000320: bae3 21be 1148 5781 3a38 46bd eecf 2bbc
00000330: 9e9b aebd 3312 3dbd a68f 8abd 35ff 8dbd
00000340: 5581 09be 0380 1cbe aa88 2abe 9de2 6581
00000350: 30e8 4ebd 1e26 1bbd 11af 18be 16c5 36be
00000360: f0bf 48be 4a08 14bd 1d9b 2dbe 91c7 26bb
00000370: a060 1fbe 7a34 0cbe 84c2 babd 5cfd 19be
00000380: d105 0cbd c5cb d9bd bf6a ccbd 5ded 36bd
00000390: 71b6 dcbd dbf6 7bbd e0ab 08be 4bbf 2dbe
000003a0: 9300 f1bd 3eac e4bc b399 54bc 7924 bcbd
000003b0: c00a 65be 1bff 0fbd 474d 35be 4469 b7bd
000003c0: 7159 0abe 384a f3bd c1e4 75be 02b2 0ebe
000003d0: ee1d 86bd cd0b 56be 1a6b 46bc 8d5a 24be
000003e0: 5169 46be 82e6 70be 82b4 59be 2869 eabd
000003f0: bec1 20be 2d68 e9bc ce61 3abe 2d9c 9dbc

network.4.bias f4 [77]
-0.31705287 -0.31705344 -0.17607035 -0.31705248 -0.31705436 -0.31705475 -0.31705406 -0.31705362
-0.3170539 -0.31705377 -0.31705385 -0.05434491 -0.17303829 -0.31705427 0.4347747 -0.3170543
-0.31705433 -0.17606339 -0.31705424 -0.317054 0.09992682 0.075736515 -0.3170538 -0.051584195
-0.1886751 -0.31705302 -0.31705332 0.10551635 -0.31705344 -0.31705573 -0.31705606 -0.31705484
-0.31705487 -0.3170546 -0.18661799 -0.31705254 -0.060189582 -0.3170532 0.09543974 -0.18570887
-0.31705227 -0.31705672 -0.3170532 -0.18892813 -0.1124848 -0.3170529 -0.31705558 0.1710665
-0.37307948 -0.31705394 -0.31705397 -0.11766207 -0.31705365 -0.3170553 -0.3170538 -0.3170592
-0.31705412 -0.31705424 -0.3170531 -0.31705463 -0.18681885 -0.078937806 -0.31705326 -0.31705636
-0.31705478 -0.41761106 -0.31705227 -0.31705385 -0.18005374 -0.31705266 -0.31705597 -0.31705275
-0.31705514 -0.31705284 0.0944424 0.06660132 -0.31705305
00000000: c154 a2be d454 a2be c94b 34be b454 a2be
00000010: f354 a2be 0055 a2be e954 a2be da54 a2be
00000020: e454 a2be df54 a2be e254 a2be c598 5ebd
00000030: f330 31be f054 a2be ca9a de3e f154 a2be
00000040: f254 a2be f649 34be ef54 a2be e754 a2be
00000050: 6fa6 cc3d bf1b 9b3d e054 a2be f349 53bd
00000060: 0c34 41be c654 a2be d054 a2be f518 d83d
00000070: d454 a2be 2155 a2be 2c55 a2be 0355 a2be
00000080: 0455 a2be fb54 a2be c918 3fbe b654 a2be
00000090: 5a89 76bd cc54 a2be e975 c33d 772a 3ebe
000000a0: ad54 a2be 4255 a2be cc54 a2be 6076 41be
000000b0: 6e5e e6bd c254 a2be 1c55 a2be 0e2c 2f3e
000000c0: 4604 bfbe e554 a2be e654 a2be d0f8 f0bd
000000d0: db54 a2be 1355 a2be e054 a2be 9555 a2be
000000e0: eb54 a2be ef54 a2be c954 a2be fc54 a2be
000000f0: 714d 3fbe 25aa a1bd ce54 a2be 3655 a2be
00000100: 0155 a2be 1ed1 d5be ad54 a2be e254 a2be
00000110: 0260 38be ba54 a2be 2955 a2be bd54 a2be
00000120: 0d55 a2be c054 a2be 046b c13d 4666 883d
00000130: c754 a2be
