element_identification_model.pt (torch, 88900 bytes, 8 tensors)

network.0.weight f4 [128, 77]
000000 e0 74 73 91 b6 fe 20 be ba 05 0c 3d ff da 31 3e
       -1.9205335e-28 -0.15722165 0.03418515 0.17368697
000010 1f 96 a1 be 37 1f 2e be cb a0 03 be e3 3d 0e 3e
       -0.31559846 -0.17004095 -0.12854306 0.13890795
000020 5d 78 a9 3e 2e 53 09 be 61 7d 85 3e 50 79 c7 be
       0.33099642 -0.13410637 0.2607222 -0.38959742
000030 f9 dc 46 3e a4 eb f8 bc 1e bb 1a 3e 49 d9 13 3e
       0.19420232 -0.0303858 0.15110442 0.14438356
000040 57 1e c8 3c 19 2e 32 3d 0a f7 f2 3d 8b 8a 75 3d
       0.02442853 0.043500993 0.11863525 0.059946578
000050 b1 f6 1b be 5f 22 fe 3a 0c d8 b5 bd 93 e3 03 3b
       -0.15230824 0.0019388905 -0.08879098 0.0020124658
000060 b7 e8 d5 bd 15 48 43 3e c7 cf 0c be b1 cd 01 be
       -0.104447775 0.19070466 -0.13751136 -0.12676121
000070 9e 3c 6c 3e 08 ad 6d be ba ae 6c 3e f5 a1 d0 bd
       0.23069999 -0.23210537 0.23113528 -0.10187141
000080 b0 51 ce 3d 0b 22 f1 bc 39 67 31 3d ee ff 1e 3e
       0.100741744 -0.029435178 0.04331133 0.15527317
000090 e2 a7 97 be e0 9c 97 3a 2d 02 93 bd ff bb 98 bd
       -0.29620272 0.0011567138 -0.07178149 -0.074577324
0000a0 75 43 28 3d fc c6 07 bd 75 9d fe bd 5c cb b9 3e
       0.041079957 -0.03314875 -0.12432376 0.36287963
0000b0 7a f1 87 3d 37 a9 4b be 0f 08 e9 bb 88 2d bd 3e
       0.06637855 -0.19888769 -0.0071115564 0.369488
0000c0 5a e7 4c 3e 86 37 e9 bd c8 e6 e5 bd 9e 61 bb bd
       0.20010129 -0.113875434 -0.11225659 -0.091494784
0000d0 eb ee 1e bd 7b e9 f4 3d 8c ef 5e 3e 47 b5 7a 3b
       -0.03880207 0.11958595 0.21771067 0.0038255022
0000e0 0f a2 2d 39 ab 8e 44 3d c9 ed e8 3d b0 1a d2 bd
       0.00016558937 0.04798762 0.11373479 -0.102589965
0000f0 a7 e4 be 3d ae 9f ef bd f8 7d c5 3d 12 93 bd be
       0.09320956 -0.11700378 0.09643167 -0.37026268
000100 30 04 c1 3b 9d c6 60 bd 2b d2 77 3d 94 e9 a4 3d
       0.0058903918 -0.054876912 0.060503166 0.08052364
000110 c5 f5 20 bd 56 f3 dc bd 28 0b bb bc e5 00 94 3d
       -0.039296884 -0.107886 -0.022832468 0.07226733
000120 9e f3 f2 3d 95 1f 19 be b9 79 15 be 58 aa cd be
       0.118628725 -0.14953454 -0.14597215 -0.40169024
000130 44 ab 79 3b c4 a4 83 8e 71 c0 1e be ed 54 18 3e
       0.0038096467 -3.2452657e-30 -0.15503098 0.14876147
000140 4a fb 0b 3d db f2 d0 bd 6b 84 a3 3d 32 ba 0a be
       0.034175195 -0.10202571 0.07984241 -0.1354759
000150 b7 a8 00 3e 47 5a 2d 3d a2 68 9b bd a3 93 81 bc
       0.1256436 0.042322423 -0.075883165 -0.015817469
000160 b4 25 cc bc 80 ce 57 3d 60 e4 01 be 3f 28 43 3c
       -0.024920322 0.052687168 -0.12684774 0.011911451
000170 b3 e8 a1 3d 1c d3 09 bd 5d 24 27 be ff 29 99 3d
       0.07905712 -0.033648595 -0.16322465 0.07478713
000180 85 30 b4 bc 46 cc f2 bd 0e b1 ed bd d7 c3 15 be
       -0.021995792 -0.11855368 -0.11606036 -0.14625488
000190 eb 92 ad bd b3 10 d7 bd 56 c9 e3 3d ee 1a b0 bd
       -0.08475288 -0.10501232 0.11122386 -0.085988864
0001a0 18 cf 07 be 87 cb 1c 3d 19 b1 28 be 33 64 5a bc
       -0.13262594 0.038280036 -0.16473807 -0.013329553
0001b0 02 1a 47 be 87 36 e6 bd 0b 8f 00 3e b0 b2 35 3e
       -0.19443515 -0.11240869 0.12554567 0.17743945
0001c0 fb 35 78 bd a4 d4 d8 bd 0e 1e ad 3d 90 77 c0 bd
       -0.060598355 -0.10587433 0.08452998 -0.09397805
0001d0 0a 34 09 be dd c9 20 be b3 f2 03 be b7 a3 15 be
       -0.13398758 -0.15702005 -0.12885551 -0.14613234
0001e0 86 0e 20 bb 34 24 97 bd 96 61 ee 3d 8c 91 6f be
       -0.002442272 -0.07379952 0.11639707 -0.23395365
0001f0 ef 3e d4 bd 6d aa 17 bd cc 6e 21 be 49 96 3e be
       -0.10363566 -0.037027765 -0.15764922 -0.18612017
000200 9e c4 91 3d 43 5f fa bd ab 86 90 3c 29 25 3b 3d
       0.0711758 -0.12225201 0.01764234 0.045689736
000210 68 d3 52 be 67 09 d5 bc 46 09 8e 3d 52 a4 04 be
       -0.20588458 -0.02600546 0.069353625 -0.12953308
000220 f7 f5 53 be 26 f4 9f 3c 20 2e ff bd cf a0 c3 3c
       -0.20699297 0.019525599 -0.124599695 0.02388039
000230 55 4f 20 bd 73 95 43 be b1 50 50 3d da 48 35 be
       -0.039138157 -0.19099979 0.050858203 -0.17703572
000240 32 fb d7 bc 56 63 8a bd 3a 97 dd bd 65 c0 00 3d
       -0.026364896 -0.06757228 -0.1081986 0.03143348
000250 5a 8c 6e bc 9c 5a 30 be 26 90 90 bd 7f 07 3a be
       -0.01455983 -0.17222065 -0.07058744 -0.18166922
000260 07 50 61 3b 2e 18 93 bd fd af 46 13 bb 59 6b be
       0.0034379975 -0.07182346 2.5077882e-27 -0.22983448
000270 f5 f3 12 3e 27 a7 8d 3d 43 86 11 3e b6 e2 91 3e
       0.14350875 0.069166474 0.14211373 0.2849328
000280 9d 6b 07 3e 0c ce be bc 50 3a 35 3d 69 34 0f bd
       0.13224645 -0.02329161 0.044245064 -0.03496209
000290 0a b8 99 bd b2 c1 b8 3d be bd 86 3d 5b e2 93 3d
       -0.07505806 0.090213194 0.06579159 0.07220908
0002a0 67 41 1e 3d a1 05 fe bc d4 e3 50 3c f4 8f 4f 3c
       0.03863659 -0.031008543 0.012749631 0.012668598
0002b0 07 c2 b9 3d 01 15 a6 3c 4a 4b 23 bc e7 38 bb 3b
       0.09070211 0.020273687 -0.009966681 0.0057135704
0002c0 3f c5 e7 bd 33 76 99 bc 8d b6 a1 3d f4 ab 94 bd
       -0.113169186 -0.01873312 0.07896147 -0.0725936
0002d0 c4 70 44 3e f3 20 67 3d 0c 68 fb 3b af e1 ec 3c
       0.19183642 0.056427907 0.0076723155 0.028916208
0002e0 31 16 cc 3d 58 1b 70 3d 96 a9 9b 3c 8d 22 6d bc
       0.0996517 0.058619827 0.019001763 -0.01447357
0002f0 39 48 8d 3d bd 4d ac 3b 97 23 b1 3e 22 e4 3f 3e
       0.06898541 0.0052582906 0.34597465 0.1873937
000300 4f a7 1e 3e 03 19 83 3d f6 8e ad 3c d6 ea cb 3c
       0.1549351 0.06401255 0.021186333 0.024892252
000310 9d 83 45 be a7 ed 25 be ef a8 90 3d 94 b9 3b 3e
       -0.19288488 -0.16203938 0.070634715 0.18332511
000320 ba 04 c7 bd 57 ed 22 be 4b 5e 94 3d 51 bd 3f 3d
       -0.097176984 -0.1591085 0.072445475 0.046811406
000330 9d 42 3d 3c d2 39 ce bd ce fd ad bc f0 41 b0 bd
       0.011551526 -0.10069622 -0.021239188 -0.086063266
000340 b0 4c 1a bd 98 8d 03 3d 96 0c bb 3d fd ad a4 3d
       -0.03767079 0.032117456 0.0913326 0.08040998
000350 41 79 23 bd 0c 2e 54 bd cb 18 67 3c ff e8 9d 3d
       -0.03991056 -0.051801726 0.014105032 0.07710456
000360 b0 b5 de 3d d1 4c 5a bd db e5 5c 3d 23 9b b0 3d
       0.10874498 -0.053295914 0.053930145 0.0862334
000370 bf ed f8 bc d1 85 84 3d 67 5a 8d 3c 63 ee b2 bc
       -0.030386804 0.06470836 0.017255021 -0.021842187
000380 99 fa 85 3d 1d d1 85 3d f6 ef 5e 3d c0 ca 06 be
       0.06541938 0.06534026 0.054428063 -0.1316328
000390 e5 6c 72 bd 98 7c ac 3e 9e d6 4f bd 81 74 f5 10
       -0.05918588 0.33688807 -0.050741784 9.6814964e-29
0003a0 3f 0a a6 bd 42 01 50 3e b9 0f 21 3e 89 20 03 bd
       -0.08107423 0.2031298 0.15728654 -0.03201345
0003b0 d3 16 58 3d c0 f3 9f bd 28 c6 77 3c c3 e7 fe 3d
       0.052756142 -0.078101635 0.015122928 0.12446549
0003c0 97 34 1a 3b 90 ab a9 3d f3 7f 93 bd e6 9a 09 3e
       0.002352988 0.08284676 -0.07202139 0.13437995
0003d0 73 fa 55 bd 82 3b ba 3d 1d e6 eb 3d 22 31 a8 3c
       -0.0522408 0.090933815 0.115185 0.02053124
0003e0 17 8d 54 3a f4 2b 43 3e 32 71 48 bd 5a 55 66 bd
       0.0008108182 0.19059736 -0.048936076 -0.05623374
0003f0 82 84 88 3c c3 86 57 3c 4d f0 96 bd 1c 50 a6 bd
       0.016664747 0.013154688 -0.073700525 -0.081207484

network.0.bias f4 [128]
000000 09 0a 70 b3 cc 79 0c 32 63 36 59 32 14 f8 fc 31
       -5.588848e-08 8.176766e-09 1.26434285e-08 7.3623685e-09
000010 fd dc b2 31 28 ef d9 32 c1 f7 3a b2 0a 3d ae 32
       5.2056053e-09 2.537088e-08 -1.0882958e-08 2.0284023e-08
000020 66 d0 6e b1 fa 01 44 32 75 54 1f 33 a3 b8 79 b2
       -3.475202e-09 1.1409151e-08 3.7096886e-08 -1.4535689e-08
000030 ed eb 0c b0 11 5f 88 32 dc a7 e6 b1 65 ba 94 33
       -5.1266974e-10 1.5875715e-08 -6.7129644e-09 6.925692e-08
000040 24 df df b3 13 17 60 b2 07 94 9a 32 e1 11 63 b2
       -1.0424836e-07 -1.30437625e-08 1.7995275e-08 -1.3217204e-08
000050 10 9d 3e b4 4e 53 61 32 de b3 94 b3 f7 fc c1 b2
       -1.7752268e-07 1.3115665e-08 -6.924505e-08 -2.2583192e-08
000060 9b 4a 52 33 9c 61 a2 31 be f2 2b 31 e1 48 c7 b2
       4.896229e-08 4.7259174e-09 2.5021758e-09 -2.319979e-08
000070 d2 97 ca b3 be 7c 2b 31 37 c1 f6 b2 89 99 40 b2
       -9.433974e-08 2.4954683e-09 -2.8726033e-08 -1.1210781e-08
000080 75 a1 79 b3 a4 ff 82 b3 9a 63 4d b4 3d 57 7e 34
       -5.8121675e-08 -6.1000975e-08 -1.9128348e-07 2.368733e-07
000090 2b 3f c3 b3 31 81 b2 b2 b7 16 da af 73 23 e2 32
       -9.091885e-08 -2.0780677e-08 -3.967011e-10 2.6325983e-08
0000a0 ac 23 65 33 47 95 26 31 a5 a7 04 b4 70 22 5a 31
       5.335066e-08 2.4241034e-09 -1.2354447e-07 3.174275e-09
0000b0 19 97 43 33 21 ff 67 33 4e ab 82 32 2f a1 a7 34
       4.5539398e-08 5.4015917e-08 1.5211892e-08 3.122345e-07
0000c0 a6 4a 01 35 1e b5 10 b3 3e a2 ec 32 fa 15 24 33
       4.816487e-07 -3.3692338e-08 2.7547795e-08 3.8204213e-08
0000d0 76 a6 46 b3 bd 65 41 ae dc dc 1a b2 1e dc 1c 32
       -4.6251863e-08 -4.397348e-11 -9.014197e-09 9.130444e-09
0000e0 79 ca b8 b1 0b 81 1c b2 1b 6f 25 b4 6a 45 6c 32
       -5.3781233e-09 -9.109736e-09 -1.5407242e-07 1.3752791e-08
0000f0 96 49 28 b3 33 db 8c af bf a0 02 b3 cd 7d e3 32
       -3.9182474e-08 -2.5621602e-10 -3.041418e-08 2.6483486e-08
000100 71 ac f2 32 2e 9b 0d b4 a0 07 6d b1 9a 76 96 32
       2.8250925e-08 -1.3188102e-07 -3.4492373e-09 1.7516232e-08
000110 d3 c7 8f b2 c7 be 8e b0 6a 3f a8 32 a0 b3 82 b3
       -1.673826e-08 -1.0386082e-09 1.9586611e-08 -6.08627e-08
000120 03 18 95 32 2a cf 24 b2 de ed d3 b1 d7 6d bd b2
       1.7356802e-08 -9.59316e-09 -6.1679506e-09 -2.2052445e-08
000130 6e d0 cb b4 0b a2 25 32 ee 70 17 b3 43 13 35 b3
       -3.796335e-07 9.641108e-09 -3.5260136e-08 -4.2159865e-08
000140 30 b2 ad 33 97 b7 f9 31 fb ea d7 31 e9 80 4f 32
       8.0883524e-08 7.2677255e-09 6.2840377e-09 1.2078297e-08
000150 09 3c d2 b0 7d 97 03 b4 f9 75 27 32 ae 73 81 33
       -1.5296574e-09 -1.2255437e-07 9.747503e-09 6.0280726e-08
000160 1d 86 ce b1 67 28 9e 32 67 c0 04 b2 55 7f fc b3
       -6.010636e-09 1.8411994e-08 -7.7271585e-09 -1.1757826e-07
000170 13 22 1d 33 df 1e d4 33 e5 8a 3a b4 32 25 80 b1
       3.65854e-08 9.877635e-08 -1.737313e-07 -3.729519e-09
000180 73 ba 9d b2 09 97 8c 34 20 b0 85 31 a5 15 bf 31
       -1.8361993e-08 2.6186925e-07 3.8908325e-09 5.5612923e-09
000190 0c 34 fc 34 a8 c7 83 33 86 1a 81 b2 92 59 ce b2
       4.6976527e-07 6.13648e-08 -1.5029638e-08 -2.4022288e-08
0001a0 27 b4 04 34 4f 14 1c b1 44 a9 1d b1 6c 75 a5 33
       1.2358997e-07 -2.2712532e-09 -2.2942723e-09 7.70477e-08
0001b0 34 b6 1a 34 69 4b cf b3 cc ed 99 b2 28 cf 00 34
       1.4408653e-07 -9.652906e-08 -1.7919682e-08 1.1996292e-07
0001c0 9f 74 63 33 d0 86 86 b1 05 5a f8 2f 78 3f 95 b2
       5.2958622e-08 -3.9152397e-09 4.51749e-10 -1.7374745e-08
0001d0 c3 cc 7f 32 8b 75 e3 b1 fb fb dc 32 1d 73 b9 31
       1.4889511e-08 -6.6199326e-09 2.5725958e-08 5.3972955e-09
0001e0 4d 89 af 33 5d 88 31 34 7f 64 82 b2 32 1b b3 b2
       8.1740474e-08 1.6534018e-07 -1.5179692e-08 -2.085071e-08
0001f0 56 45 0a b1 dd 94 7b b2 da 27 81 b3 a2 95 7a 33
       -2.0121056e-09 -1.46439705e-08 -6.0142796e-08 5.834375e-08

network.1.weight f4 [128]
000000 9f df ac 3f 04 80 90 3f 27 0a 89 3f 62 98 92 3f
       1.3505744 1.1289067 1.0706223 1.1452754
000010 46 44 98 3f 09 93 97 3f ee ac a3 3f 02 1d 90 3f
       1.1895835 1.1841747 1.2787149 1.1258852
000020 90 f1 88 3f 4c 79 9b 3f f6 cf 98 3f e0 09 9a 3f
       1.0698719 1.2146392 1.1938465 1.2034264
000030 36 1f a5 3f 48 bf 97 3f d6 2f a0 3f 99 16 87 3f
       1.290015 1.185525 1.2514598 1.0553771
000040 79 5a 9d 3f 6d 3e aa 3f 70 d3 98 3f 6d 26 a2 3f
       1.2293235 1.3300301 1.1939526 1.2667977
000050 90 73 bb 3f ae 9a 91 3f ef 8e ae 3f 79 31 96 3f
       1.4644642 1.137533 1.363737 1.1733848
000060 b2 cc 8a 3f 98 e2 76 3f 65 64 a0 3f a1 71 a4 3f
       1.0843718 0.96439505 1.2530638 1.2847177
000070 c9 21 e3 3f 04 f6 c0 3f 28 2b ac 3f 95 3d 94 3f
       1.7744685 1.5075078 1.345067 1.1581293
000080 f3 e1 b7 3f bd d7 93 3f d4 88 c7 3f 51 85 bb 3f
       1.4365829 1.1550213 1.5588632 1.465006
000090 e0 9a 93 3f 32 34 a1 3f 96 70 8c 3f f6 92 8d 3f
       1.1531639 1.2594054 1.0971859 1.1060474
0000a0 a2 17 9e 3f 7f 8f 7b 3f cb 1f a1 3f 39 15 9c 3f
       1.2350962 0.9826583 1.2587827 1.2193977
0000b0 02 a6 9e 3f 7b a7 9f 3f 27 d0 97 3f bf 66 c9 3f
       1.2394412 1.2472986 1.1860398 1.5734481
0000c0 78 3f c1 3f 4e e2 ad 3f 96 b6 97 3f 3e cc 95 3f
       1.5097494 1.3584688 1.1852596 1.1702955
0000d0 44 17 87 3f 98 fb a7 3f 65 90 90 3f 74 f5 a7 3f
       1.0553975 1.3123655 1.1294066 1.3121781
0000e0 19 ef 8f 3f 8f 13 a0 3f de 8a b9 3f 4c 44 9b 3f
       1.1244842 1.2505969 1.4495504 1.2130218
0000f0 1e 14 9b 3f 2f 5f a4 3f c0 af a5 3f 3b 68 a7 3f
       1.2115514 1.2841548 1.294426 1.3078684
000100 c1 75 a0 3f 75 df a8 3f 81 7d 9d 3f a3 37 8a 3f
       1.2535936 1.3193194 1.2303926 1.0798229
000110 f7 1e 9a 3f cd 3a 7d 3f e5 d6 9c 3f 11 6c 96 3f
       1.20407 0.9891785 1.2253081 1.1751729
000120 d9 35 b8 3f 6d b6 90 3f ef c4 8d 3f 1f 43 98 3f
       1.4391433 1.1305672 1.1075724 1.1895484
000130 d0 63 aa 3f ea 56 9a 3f d8 21 8f 3f bb 9f cb 3f
       1.331171 1.2057774 1.1182203 1.5908121
000140 e1 e1 b7 3f 11 a7 a3 3f 23 c9 8e 3f e7 20 9f 3f
       1.4365808 1.278536 1.1155132 1.2431916
000150 d5 96 92 3f d7 ac ad 3f dc 97 94 3f 94 b1 a1 3f
       1.145228 1.3568372 1.1608844 1.2632318
000160 da 86 92 3f 5e 4a 93 3f b6 a8 aa 3f c7 80 96 3f
       1.1447403 1.150707 1.3332736 1.175805
000170 f4 65 95 3f 4b 09 ad 3f be d6 a4 3f 62 6c 92 3f
       1.1671739 1.3518461 1.2878034 1.1439326
000180 35 d5 74 3f 17 ed b4 3f 6e ce 81 3f cc 5a 8a 3f
       0.9563783 1.4134854 1.0141122 1.0808959
000190 bf 5a a3 3f db 26 aa 3f cb 70 93 3f 37 7f ae 3f
       1.2762069 1.3293108 1.1518797 1.3632573
0001a0 89 cc 9f 3f 44 71 9e 3f 2f 37 9f 3f dd a8 8b 3f
       1.2484294 1.2378316 1.2438716 1.0910908
0001b0 8d 41 c0 3f 44 1e a2 3f 1c b1 a5 3f d0 78 b2 3f
       1.5020005 1.2665486 1.2944674 1.3943119
0001c0 66 b0 a4 3f 7f 83 9b 3f a8 59 94 3f ec 98 a4 3f
       1.2866333 1.2149504 1.1589861 1.2859168
0001d0 92 0a 97 3f ee c7 ab 3f 1a 66 97 3f 49 ab 9d 3f
       1.1800101 1.3420389 1.1828034 1.2317897
0001e0 d3 0b ba 3f a8 ae 9a 3f 3d 3b a7 3f 6a 61 87 3f
       1.4534858 1.2084551 1.3064953 1.0576603
0001f0 1d 2c a1 3f 3e dd aa 3f 1f 9e a4 3f 51 23 9f 3f
       1.2591587 1.3348768 1.2860755 1.2432653

network.1.bias f4 [128]
000000 32 14 91 3e 56 5a 07 3e f0 65 70 3e d0 47 5d 3e
       0.2833572 0.13218054 0.23476386 0.21609426
000010 8b 45 21 3e b9 08 58 3e 7e ac ba 3e 7e a7 11 3e
       0.15749185 0.21097077 0.36459726 0.1422405
000020 62 78 c3 3e 4c 4d d8 3e de 76 3e 3e 3f c1 19 3e
       0.38177782 0.42246473 0.18600032 0.15015124
000030 60 25 26 3e 2c 3e b4 3e 41 e4 97 3e 1b 12 6e 3e
       0.16225195 0.35203683 0.2966633 0.23249094
000040 69 18 02 3e 73 f5 8c 3e 75 36 eb 3d 6b 02 da 3c
       0.12704624 0.27531013 0.11484996 0.026612481
000050 47 7e 68 3e f7 1f 72 3e 1b 7b 80 3d 20 d7 16 3e
       0.22704421 0.23645006 0.062734805 0.14730501
000060 82 fe ec 3e c6 bf 63 3c 10 93 57 3e a3 c8 e8 3e
       0.46287924 0.013900703 0.21052194 0.45465574
000070 f8 92 5d 3e c4 d2 6b 3e 55 f1 2b 3e 98 9d 73 3e
       0.21638095 0.2302962 0.1679128 0.23790586
000080 f1 42 6f 3e 61 0d a6 3e 1d ab a0 3e 38 b8 34 3e
       0.2336538 0.32432082 0.3138055 0.17648399
000090 e4 d0 03 3f 31 1f 92 3e 14 9d 91 3d f9 d1 6c 3e
       0.51490617 0.28539422 0.071100384 0.23126973
0000a0 9f 00 57 3e 8f 2e 07 3e db af 28 3e e6 f1 db 3d
       0.2099633 0.13201354 0.16473334 0.10739498
0000b0 dc 63 90 3e 25 8a 93 3e 4c b9 8d 3e bf c9 ed 3e
       0.28201187 0.28816333 0.27680433 0.46442983
0000c0 56 47 31 3e c1 22 c3 3e df 89 63 3e 4e df 10 3e
       0.17312369 0.38112453 0.22220562 0.14147684
0000d0 ab 7e 66 3e 40 e2 42 3e 2a 72 8a 3e 29 5b c1 3e
       0.22509257 0.1903162 0.27040225 0.37764862
0000e0 45 93 63 3e de 16 8c 3e 36 5b 8a 3e a7 39 61 3e
       0.22224148 0.27361196 0.27022713 0.21994649
0000f0 2e bd ab 3e e1 bb 00 3e c9 7b 9f 3e 87 de 37 3e
       0.3354277 0.1257167 0.31149128 0.17955981
000100 cb 20 92 3e 67 22 78 3e 96 4f a1 3e f4 c1 6b 3e
       0.28540644 0.24231873 0.31506032 0.23023206
000110 0a e6 53 3e fe 77 6b 3d 3a f6 35 3e d8 43 80 3e
       0.20693222 0.05748748 0.17769709 0.2505176
000120 51 4d 8b 3e 44 a9 59 3e 63 e8 52 3e d9 bd 2b 3e
       0.27207425 0.21255976 0.20596461 0.1677164
000130 e3 f2 e5 3e c2 2d 72 3e ac 32 ac 3e 59 7b d8 3e
       0.4491187 0.23650268 0.3363241 0.42281607
000140 90 0f 86 3e a1 6b 63 3e 8a d4 5a 3e e1 58 9a 3e
       0.26183748 0.22209026 0.2137014 0.30145934
000150 06 9b 74 3e 66 fa ac 3e e1 13 82 3e 06 18 ac 3e
       0.23887262 0.3378479 0.2540579 0.33612078
000160 6a 77 b2 3e 7d c6 c4 3e 9f ee 96 3e 16 d4 9a 3d
       0.3485673 0.38432685 0.29478928 0.075599834
000170 ab 7c c4 3e d4 02 72 3e 2a b7 4c 3e 3a 74 50 3e
       0.38376364 0.23633891 0.19991747 0.20356837
000180 e5 5c 67 3e 1a 2c 52 3e 2d 0d 99 3d b2 3d 6e 3e
       0.2259403 0.20524636 0.07473216 0.23265722
000190 2b 03 e9 3e c5 19 7e 3e 5e 3b d5 3e bf 71 55 3e
       0.4551023 0.24814518 0.41646856 0.20844172
0001a0 cf 20 10 3f 38 e1 64 3e 88 7c a4 3e 8f 9c 72 3e
       0.5630006 0.22351539 0.3212626 0.23692535
0001b0 7a bb 5d 3e ef 9a 80 3e 6e e6 67 3e d8 b3 23 3e
       0.21653548 0.25118205 0.22646496 0.15986574
0001c0 e9 f2 97 3e 03 55 07 3f 2b 20 b7 3e 80 94 94 3e
       0.29677513 0.5286409 0.3576673 0.29019547
0001d0 a1 8a d4 3d bb b3 88 3e 86 80 89 3e 0b 99 83 3e
       0.10378004 0.26699623 0.26855868 0.257027
0001e0 66 d9 b9 3e 58 85 99 3e 1f 44 27 3e 4e 2e 4d 3e
       0.36298674 0.29984546 0.1633458 0.20037195
0001f0 7a ed 97 3e 32 6c ca 3c 5f 43 5e 3e f3 17 17 3d
       0.29673368 0.024709795 0.21705388 0.036888074

network.1.running_mean f4 [128]
000000 fe d5 0a bc 2a f0 18 3d a0 01 c6 3a a0 e1 ce ba
       -0.008473871 0.037338413 0.0015106685 -0.0015783794
000010 78 b0 5a 3d 2d db 4c 3c 0a cf 09 bd 2d 1a 15 3d
       0.05339095 0.012503427 -0.033644713 0.036401916
000020 18 3d 1a bd 22 8d 95 bd 8c 65 1f bc 7c da 27 3d
       -0.03765592 -0.073023096 -0.0097288005 0.040979847
000030 34 83 3e 3d 63 26 6d bd 4c 38 44 3c b0 e4 90 3b
       0.046511844 -0.057897937 0.011976313 0.004421793
000040 70 95 00 3b 76 f6 e7 bc 92 a3 4e 3d 92 38 d0 bc
       0.0019620322 -0.028315764 0.05044896 -0.0254176
000050 da 7c 30 3b f0 55 a8 3c 6c 00 5c 3c d6 79 a6 3c
       0.0026929886 0.02054879 0.013427835 0.020321768
000060 6e 3a 8c bc ff 78 2f 3d 6e 74 4d 3d da 43 08 bd
       -0.017117705 0.04284 0.050159864 -0.033267833
000070 72 f1 03 bd cb 68 e4 3b cb bc 08 3d 50 26 1f 3c
       -0.032212682 0.0069705 0.033383172 0.009713724
000080 4b 2a dd 3c 0e e9 c3 bc f6 e0 93 bc 0e b5 0b bd
       0.026997706 -0.02391484 -0.018051606 -0.034108214
000090 bf 9a ac bc 00 70 f0 3b d6 0a dd bc fe 5f 9b 3c
       -0.021069882 0.00733757 -0.026982706 0.018966671
0000a0 e8 2a 6c 3c 8c 81 de bc 96 46 a0 3c f5 38 73 3d
       0.0144145265 -0.027161382 0.019564908 0.05938049
0000b0 7d 4f 57 3d 60 67 11 bb e4 59 64 3d 1d 6e d1 bc
       0.05256604 -0.002218686 0.05574979 -0.025565201
0000c0 f0 4b cd bc 42 5a 00 3d c3 9f f7 3c 2a db 9b bc
       -0.025060624 0.031336077 0.030227548 -0.019025404
0000d0 7a df e4 bc aa 68 19 3d 7a d5 35 3d 63 38 1d bd
       -0.027938593 0.03745333 0.04439304 -0.038383853
0000e0 98 45 1a 3c 18 aa b0 3c 20 b5 52 bb 50 af 16 3d
       0.0094160065 0.021565482 -0.0032151416 0.036788285
0000f0 ae ee 49 3d 62 2d b9 3c 38 18 87 3c 98 f3 12 3c
       0.04929989 0.022604648 0.01649104 0.00896921
000100 a4 da 47 3d 5a 4f a5 bc e8 11 10 bd 86 ac 84 3d
       0.048792496 -0.02017944 -0.035173327 0.06478219
000110 9a 2c 7b 3c d8 d0 ce 3c e5 92 8f 3d 1c 97 b8 bc
       0.015330458 0.025246069 0.0701044 -0.022532992
000120 3f 11 e9 bc 07 e1 2d bd 4e 6a 87 3d fc db cc 3c
       -0.028450606 -0.04245093 0.06612073 0.02500724
000130 01 88 29 bd d1 27 83 3d 4b 11 63 bd 1a a2 16 3d
       -0.04138947 0.06404079 -0.055436414 0.036775686
000140 46 f3 58 3c 00 a0 ea bc b8 87 c8 bb 03 8c 15 3d
       0.013241595 -0.028640747 -0.0061196946 0.03651048
000150 50 11 9d 3b 0e 3e b2 bc 52 a2 db bc 4a 9d 29 3d
       0.0047933236 -0.021758106 -0.026810799 0.04140977
000160 c4 a4 3f bd 05 cc 0d bd a4 8c cf 3c 12 8b 29 3c
       -0.046787992 -0.034618396 0.025335617 0.010348098
000170 72 94 89 3c 3e 4d 9b 3c 24 28 55 3c 30 ab 3a bc
       0.016794417 0.01895773 0.013010059 -0.011393353
000180 4a b4 86 3c 8e 27 88 3b 78 7f 96 3c 04 c9 e1 3c
       0.01644339 0.004155106 0.018371329 0.027561672
000190 74 ac 16 bd 42 1c ce 3c f0 2f 15 bd dd cc 1e 3d
       -0.036785558 0.025159959 -0.03642267 0.03876959
0001a0 76 1f 61 bd 60 d9 e1 3b 1e 46 3d bd 0c d6 e4 3c
       -0.054961644 0.006892368 -0.046209447 0.027934097
0001b0 3c 15 fc bc 90 d5 1e 3d e6 88 6d 3d b6 9b d7 bc
       -0.030771844 0.038777888 0.057991885 -0.026319366
0001c0 f0 43 cc 3b 76 52 8d bd fd 0d 80 bd 93 1b 1b bd
       0.0062336847 -0.06900494 -0.06252668 -0.037868094
0001d0 54 e7 21 3c 18 8d b4 3c e4 70 ec 3c 72 12 70 3d
       0.009881813 0.022039935 0.028862424 0.05861134
0001e0 23 86 a4 bc 08 ca b2 bc 68 76 7c 3d c4 0b 72 bc
       -0.020083493 -0.021824852 0.06163636 -0.014773313
0001f0 c0 0f e1 bb 53 ca 2f 3d bc 2f 3c 3c 24 b7 97 bc
       -0.0068683326 0.04291756 0.01148599 -0.018519945

network.1.running_var f4 [128]
000000 53 0c b9 40 df 87 99 41 0e a4 82 40 10 7a f8 40
       5.7827544 19.191343 4.082526 7.7649
000010 4b c0 cb 41 34 de cc 40 8d ee 35 41 71 43 52 41
       25.468893 6.4021244 11.37074 13.141465
000020 79 4b d1 41 29 8c 21 42 f6 7d 04 40 e3 15 7e 41
       26.161852 40.386875 2.070188 15.880343
000030 f7 a5 e3 41 19 bc 9c 41 26 85 6c 41 23 eb ff 3f
       28.456038 19.591845 14.782507 1.9993633
000040 2f 8c 7b 40 00 2d 51 41 bd 25 bf 41 54 82 14 41
       3.9304311 13.073486 23.893427 9.281818
000050 f7 5d f8 3e ba f8 b5 3f d6 76 bb 40 88 3d a5 3f
       0.4850919 1.421653 5.8582563 1.2909403
000060 d1 fd 23 41 43 b6 0c 41 fe 70 c2 41 e2 c3 ce 41
       10.249467 8.7944975 24.305172 25.845646
000070 a1 de 97 40 09 aa 0f 40 c0 1b 42 41 78 2b 85 41
       4.7459264 2.2447531 12.131775 16.646225
000080 be e0 71 41 db 31 8a 41 2f 5a ca 3f d1 d9 a4 40
       15.117369 17.274343 1.5808772 5.151589
000090 a1 88 88 41 c5 77 d1 41 3a 3e 37 41 4a d8 1d 40
       17.066713 26.183481 11.452692 2.4663262
0000a0 86 f6 16 41 73 af 40 40 d3 48 e0 40 dc b2 eb 41
       9.435186 3.0107086 7.0088897 29.462334
0000b0 52 30 9f 41 50 47 8f 41 35 e7 9d 41 24 ab 8a 41
       19.898594 17.90982 19.737894 17.333565
0000c0 0b 5c 33 40 0b 68 97 40 05 a7 2f 41 7b f8 1e 40
       2.8024929 4.7314506 10.978276 2.483916
0000d0 f9 b6 22 41 13 07 e2 41 1e 54 78 41 e8 d5 5c 41
       10.169671 28.253454 15.520536 13.802223
0000e0 25 69 c7 41 9a 7e e9 41 0e bc a4 40 42 f7 6f 41
       24.92634 29.186817 5.147956 14.997866
0000f0 3b 84 7d 41 54 a5 fe 40 0c db 8c 41 c3 3e 00 41
       15.844783 7.9576817 17.606956 8.015323
000100 de 11 b5 41 cc 4d f5 3f 72 e3 e2 40 42 9e d4 41
       22.633724 1.9164367 7.0902643 26.577274
000110 74 28 06 41 de 38 03 41 66 7d d3 41 75 36 07 41
       8.384876 8.201384 26.43623 8.450795
000120 c9 58 64 40 a2 0b dd 41 db 25 21 42 c0 9b b7 40
       3.567919 27.63068 40.28697 5.7377625
000130 b2 aa fa 41 ac 16 b8 41 d7 8f fc 41 11 c0 b7 40
       31.333347 23.01107 31.570234 5.7421956
000140 d3 a7 c8 40 2a 57 9c 40 bb 0f f0 40 d4 2b a4 41
       6.2704864 4.88564 7.50192 20.5214
000150 d0 46 ad 41 4a ad 43 40 d4 45 84 41 46 fd 11 41
       21.659576 3.0574517 16.534096 9.124334
000160 8f ef db 41 d2 66 cc 40 c9 ac 09 40 71 cd 91 40
       27.491972 6.3875513 2.151171 4.5563283
000170 ac d8 9d 41 ae 4f 5a 40 d2 99 7a 41 32 67 e5 41
       19.730797 3.4111133 15.662554 28.675388
000180 84 50 25 41 94 e1 d8 3e 06 fc a8 40 50 60 08 41
       10.332157 0.42359602 5.2807646 8.523514
000190 fb aa 52 41 ee 0e e5 40 af 62 6f 41 58 93 87 41
       13.166743 7.1580725 14.961593 16.946945
0001a0 da 37 0b 42 83 9f 34 41 18 8f 59 41 f2 57 56 40
       34.804543 11.288943 13.597435 3.3491178
0001b0 d6 5c ab 40 e4 ed 7c 40 91 f6 b3 41 1a 45 73 40
       5.3550825 3.9520197 22.495394 3.8010926
0001c0 10 2d 5f 41 37 45 2c 42 30 52 08 42 34 cc 13 41
       13.948502 43.067593 34.08026 9.237354
0001d0 c8 69 a2 40 a0 8a 1a 41 6d 14 05 41 3c 42 9b 41
       5.0754128 9.658844 8.317487 19.407341
0001e0 c5 bf 99 41 c2 4f 43 40 32 e1 e9 41 91 c9 35 41
       19.218637 3.051743 29.234959 11.361711
0001f0 85 73 4e 41 78 f8 6a 41 33 27 31 40 7b 55 99 40
       12.903203 14.685661 2.7680175 4.7916846

network.4.weight f4 [77, 128]
000000 c1 c5 f4 bd fc c0 91 bd b5 c0 39 be f5 b9 39 be
       -0.11951781 -0.07116887 -0.18139918 -0.18137343
000010 68 eb de bd ce af 19 be 22 b5 9a bd 14 1a aa bd
       -0.10884744 -0.1500847 -0.075540796 -0.08305755
000020 48 e1 c1 bd 80 e7 cb bd 57 30 8d bd 71 ef c3 bd
       -0.09466797 -0.099562645 -0.06893986 -0.09567154
000030 dc 6c 88 bd a8 bb 16 be d5 bf 7f bd ef 97 e5 bd
       -0.06661388 -0.14720023 -0.062438805 -0.1121062
000040 b9 36 a4 bd 79 87 2a be c0 b7 29 be e5 c3 11 be
       -0.0801825 -0.16653241 -0.16574001 -0.14234884
000050 52 4d a4 bd 20 e5 db bd de 9b 2d be 86 a0 17 bd
       -0.0802256 -0.107370615 -0.1695399 -0.03701832
000060 84 d8 d1 bd 89 32 2e bd e0 77 d1 bd ff 50 df bd
       -0.10246375 -0.042528663 -0.102279425 -0.10904121
000070 2c 45 b4 bd f8 9b 26 be 54 83 51 bd 79 e1 26 be
       -0.08802256 -0.16270435 -0.051150635 -0.16296948
000080 f6 c2 f3 bd 9d b8 25 be 66 fe 30 be 53 00 9b bd
       -0.1190242 -0.16183706 -0.17284545 -0.07568421
000090 b0 1a 0c be d8 0c 15 be 90 38 79 bd ac a1 80 bd
       -0.13682055 -0.14555681 -0.060844958 -0.062808365
0000a0 ec c6 48 be a3 fc d9 bd 31 f2 be bd e0 b5 2f bd
       -0.19607133 -0.1064389 -0.09323538 -0.04289806
0000b0 2f a6 18 be c6 74 0d be af 5b 1e be 21 42 c8 bd
       -0.14907144 -0.13814077 -0.15464662 -0.09778238
0000c0 bc 7a e0 bd ab 55 c7 bd 3f 61 00 be 89 ae 29 be
       -0.1096091 -0.09733137 -0.12537096 -0.16570486
0000d0 93 60 1a be 24 71 08 be 09 99 d9 bd d6 18 b2 bd
       -0.15075903 -0.1332441 -0.10624892 -0.08696143
0000e0 61 81 be bd f1 93 2c be f1 3b 01 be ad 46 03 be
       -0.09302021 -0.1685331 -0.12620522 -0.1281993
0000f0 88 1c 75 bd 74 b4 90 bd 31 bb 28 be c6 17 17 be
       -0.059841663 -0.07065669 -0.16477658 -0.14755163
000100 2d b8 2f be 8b 86 16 be 94 76 30 be ab 7b b8 bd
       -0.17160101 -0.14699762 -0.17232734 -0.09007963
000110 a8 f6 1f be 5e 21 18 be 34 b3 f2 bd f0 0b 17 be
       -0.15621436 -0.14856479 -0.118505865 -0.14750648
000120 86 2e 8f bd b6 b1 50 bd 06 e7 3c be 96 c2 a7 bd
       -0.069912955 -0.05095073 -0.18447503 -0.08191411
000130 1b 80 e9 bd 7a 89 c4 bd 33 a3 08 be db 7a 0d be
       -0.11401387 -0.09596534 -0.13343506 -0.13816397
000140 a0 3f f4 bd 64 eb a4 bd 9c e6 cd bd e2 aa c1 bd
       -0.11926198 -0.0805271 -0.10053751 -0.094564214
000150 87 e2 c2 bd cf e1 42 be 1d 19 1c be 8d bc 27 be
       -0.09515863 -0.19031452 -0.15243955 -0.1638052
000160 55 a8 32 be f9 25 21 bd 36 5d 1b be 93 b0 2c be
       -0.17447026 -0.039342854 -0.15172276 -0.16864233
000170 c7 8d 28 be a8 ee 9b bd 9e b6 27 be 67 7e 3c be
       -0.16460334 -0.076138794 -0.16378257 -0.18407594
000180 33 09 2d be a1 c7 eb bd 47 a3 e9 bd 99 0b 38 be
       -0.1689804 -0.115126856 -0.11408096 -0.17973174
000190 ba 98 27 be 23 b6 34 be 44 f8 ea bd c4 a7 c4 bd
       -0.16366854 -0.17647605 -0.11473134 -0.09602311
0001a0 20 b5 c8 bd 9e 1f 03 be 69 8a 1f be ad da b0 bd
       -0.09800172 -0.1280503 -0.15580143 -0.08635459
0001b0 a1 ec 30 be 9e 19 ff bd c8 2a 19 be 7a 64 e9 bd
       -0.17277767 -0.12456058 -0.14957726 -0.113961175
0001c0 38 12 dc bd 51 5c 57 bd f6 55 34 bd 3d 6a 07 be
       -0.107456625 -0.052578274 -0.04402729 -0.1322412
0001d0 63 35 d6 bd 2e ca 30 be ae 81 2d be 3f 19 80 bd
       -0.104594015 -0.17264625 -0.16944 -0.06254815
0001e0 16 86 b6 bd 2d e7 19 be 3c 87 a3 bd bb 22 d1 bd
       -0.089122936 -0.15029593 -0.07984778 -0.102117024
0001f0 f5 16 e5 bd a8 a7 ad bd 85 be fd bd af 2e 25 be
       -0.11186019 -0.084792435 -0.12389854 -0.1613109
000200 ca 87 28 be c4 5d 32 bd 78 15 81 bd 5c fc 28 be
       -0.1645805 -0.043546453 -0.06302923 -0.16502517
000210 26 14 53 bd 47 4a 3f be 76 ab 76 bd da 81 6f bd
       -0.051532887 -0.18680678 -0.06022211 -0.058473445
000220 5e 71 87 bd a9 18 d3 bd 95 5a 2a be ec d6 0b be
       -0.0661342 -0.10307438 -0.16636117 -0.13656205
000230 d8 da c8 bd 6f 70 af bd 4d 70 8f bd 6f 6d bf bd
       -0.09807366 -0.08566367 -0.070038415 -0.09347045
000240 cb 4c ae bd 32 d7 2a be 93 5b 0b be 41 ab 77 bd
       -0.08510741 -0.16683653 -0.13609152 -0.060466055
000250 64 75 e2 bd 44 0f 5e bd cf db 27 be 91 73 1e be
       -0.11057547 -0.054213777 -0.16392444 -0.15473773
000260 f3 47 da bd c1 1c e0 bd 7b b1 30 be 46 f7 be bd
       -0.106582545 -0.10942984 -0.17255203 -0.093245074
000270 b3 40 0d be f1 67 c7 bd ad 5b d0 bd d4 4a 32 be
       -0.13794212 -0.09736622 -0.10173736 -0.17411357
000280 f4 1f 32 be 0c 20 39 be 86 e0 a7 bd 26 59 25 be
       -0.17395002 -0.18078631 -0.08197121 -0.16147289
000290 36 60 82 bd 96 e0 1c be 7f d1 b7 bd a2 ee 83 bd
       -0.06366007 -0.15320048 -0.08975505 -0.06442
0002a0 89 48 2e be a1 57 35 be cc ef c3 bd 7a 3a 23 be
       -0.17019857 -0.17709209 -0.09567222 -0.15940276
0002b0 55 a8 9e bd 09 73 c3 bd fb eb 88 bd 66 0e 07 be
       -0.077469505 -0.095434256 -0.06685635 -0.13189086
0002c0 6b 68 2c be e7 e7 2e be c5 47 22 be dc d3 88 bd
       -0.16836707 -0.17080651 -0.1584769 -0.06681034
0002d0 3c 32 0f be 90 80 e1 bd 3d 60 0d be c6 84 18 be
       -0.13984007 -0.110108495 -0.13806243 -0.14894399
0002e0 05 03 98 bd 50 bd 0b be 7c ab 1f be 8d 92 5f bd
       -0.07422451 -0.13646436 -0.1559276 -0.05458312
0002f0 0d 8b a3 bd 1d b0 96 bd 20 b4 80 bd b5 4b 1c be
       -0.07985506 -0.0735781 -0.06284356 -0.15263255
000300 60 aa d6 bd f5 66 0e be 9b 7f eb bd e4 ef a0 bd
       -0.10481715 -0.13906462 -0.11498948 -0.078582555
000310 91 98 17 be 3e 46 44 bd df 0b fc bd 12 cf ba bd
       -0.14804293 -0.04791855 -0.12306952 -0.09121527
000320 75 d4 ea bd 85 f9 44 be 22 b1 20 be 7b d4 2c be
       -0.11466304 -0.19235809 -0.15692571 -0.1687793
000330 3f c5 f4 bd d7 71 33 be 12 fe 2f be 52 98 fa bd
       -0.11951684 -0.17523895 -0.17186764 -0.12236084
000340 59 1f 38 be 37 b4 1a be 39 da 31 be 5a 7b a7 bd
       -0.17980708 -0.15107809 -0.17368402 -0.08177824
000350 20 e7 29 bd 99 85 f4 bd 9c 2a 24 be 47 c2 77 bd
       -0.041480184 -0.11939544 -0.16031879 -0.06048801
000360 ad 1a 57 bd 7d 05 0a be 7c ff 65 bd 6e 5e e0 bd
       -0.052515674 -0.13478656 -0.056151852 -0.10955511
000370 60 a4 35 be fc 40 e1 bd f4 db 37 be ea 6d d0 bd
       -0.17738485 -0.10998723 -0.17954999 -0.101772144
000380 b3 1f c6 bd df 7f 3e be 5f 2d 0e be 31 71 f1 bd
       -0.09674015 -0.18603466 -0.13884495 -0.11789168
000390 e6 ee 89 bd fc 3d 19 be 41 6a 10 be f9 20 03 be
       -0.067350194 -0.14965051 -0.14103033 -0.12805547
0003a0 ce 61 1f be e0 1e 0f be a5 51 15 be 11 4c 0d be
       -0.15564653 -0.13976622 -0.14581926 -0.13798548
0003b0 fc 55 30 be 94 9e cd bd 4e 37 09 be b0 c4 1c be
       -0.172203 -0.10040012 -0.13400003 -0.15309405
0003c0 8d f6 b5 bd d9 71 86 bd 66 8a f6 bd 7c ba 02 be
       -0.088849165 -0.065646835 -0.12038116 -0.1276645
0003d0 d5 2d 3a be dd f2 32 be 2c b9 fd bd 0d 3c 07 be
       -0.18181546 -0.17475457 -0.12388834 -0.13206501
0003e0 53 58 a6 bd 1f ed 1b be 40 92 03 be d8 52 fd bd
       -0.08122315 -0.15227173 -0.12848759 -0.12369317
0003f0 9b e4 98 bd 72 69 6f bd 90 0b 27 be 9d cb f1 bd
       -0.07465478 -0.05845017 -0.16313004 -0.11806414

network.4.bias f4 [77]
000000 68 4b 4f be d7 b4 58 be 05 23 e5 bd b8 68 3b be
       -0.20243609 -0.21162735 -0.1118832 -0.18301666
000010 de ae b4 bd 97 17 04 be 4c c4 43 be e6 cc 5b be
       -0.08822416 -0.12899624 -0.1911785 -0.21464881
000020 55 6f 49 be 2c 60 8c bd d8 0e 10 be 74 71 71 bd
       -0.19671376 -0.06854281 -0.14068162 -0.058946088
000030 83 b1 9d bd 80 e1 f1 bd e0 03 0f 3e 74 b4 b6 bd
       -0.07699873 -0.11810589 0.13966322 -0.089211375
000040 5e 03 c2 bd a7 fa d2 bd ce b7 dd bd 8d e1 e6 bd
       -0.094732985 -0.103017144 -0.108260736 -0.11273489
000050 32 2b f6 bc 57 61 a5 bd eb c4 27 be 2d 01 89 bd
       -0.030049894 -0.08075207 -0.16383712 -0.066896774
000060 b0 a8 40 be 8f 27 9b bd ee b3 c0 bd a6 f0 b4 bc
       -0.18814349 -0.075759046 -0.09409319 -0.022087406
000070 83 6d e8 bd f9 8a b7 bd 0f ce ca bd 3d 6f 1e be
       -0.11349013 -0.08962054 -0.09902584 -0.15472122
000080 fd 13 62 be db 8f eb bd 59 cf 2f be d1 03 47 be
       -0.22077937 -0.11502048 -0.1716894 -0.1943505
000090 93 ad 03 3e ef 0c 97 bd d4 a7 15 bd 71 49 2e be
       0.12859182 -0.07375514 -0.036537006 -0.17020203
0000a0 46 f8 36 be 55 99 9f bd 4c 21 c5 bd 1b 05 25 be
       -0.17868146 -0.07792918 -0.096254915 -0.16115229
0000b0 78 ba 21 be 18 29 37 be b1 91 39 be ca 14 c5 3d
       -0.15793788 -0.1788677 -0.18121983 0.09623106
0000c0 23 03 51 bd af 3a 26 be bd 75 a2 bd 0c d0 15 be
       -0.051028382 -0.16233324 -0.07932613 -0.14630145
0000d0 e6 ca e6 bd e1 1e 16 be 44 18 5b be 21 2b ac bd
       -0.112691686 -0.14660217 -0.21395975 -0.08406664
0000e0 1f 7f 9d bd 9b b0 23 be 66 9b ec bd ed 20 e4 bd
       -0.07690262 -0.15985338 -0.115530774 -0.111390926
0000f0 91 12 49 be fa cf aa 3d d3 fe 3f be 36 53 dc bd
       -0.19635989 0.0834045 -0.18749551 -0.10758059
000100 20 df 55 be c7 c5 0f bd 74 bb 2b be 19 57 5a be
       -0.20885897 -0.035100725 -0.16770726 -0.21322288
000110 07 3a 0c be e9 a3 29 be da 23 1d be bd 8c 0d be
       -0.1369401 -0.16566433 -0.15345708 -0.13823219
000120 e9 1a a4 bd d9 cb 4a be 0c ce 37 bd 79 86 da bd
       -0.08012945 -0.19804324 -0.044874236 -0.1067018
000130 c4 d3 d7 bd
       -0.10538438
