element_identification_model.pt (torch, 88900 bytes, 8 tensors)

network.0.weight f4 [128, 77]
00000000: 787a 8a14 80bd debd d387 f03c 676b 263e
00000010: a969 b9be 3997 1bbe 105d 3bbe b968 263e
00000020: 302f 9d3e 5209 31be c8ad 883e 916e d2be
00000030: 8296 353e 8d42 a6bd 54b0 153e 55a2 0a3e
00000040: 9640 6bbc 9681 7b3a 3b04 f43d 64e7 26bc
00000050: 7d8b 18be 74ae 20bd ee3e 9cbd da9f 993c
00000060: 9629 17be d58d 3a3e 96bf f9bd e623 0bbe
00000070: 67f2 5f3e 7641 41be 78a9 633e 0cef 17be
00000080: e33b 953d 492e 02bb 2e65 2b3d 0367 dd3d
00000090: 67c0 84be d032 883c a83a a3bd 3181 f2bd
000000a0: f471 bb3c 4ed8 97bd c2fe 31bd dd58 a23e
000000b0: ce74 463d 5741 6fbe 47b6 33bd d225 a23e
000000c0: 61df 043e 554a 1fbe 5648 2fbe 4a32 8bbd
000000d0: bc7e c3bd 985c b33d 6e42 4b3e 5bab 1abd
000000e0: 1442 29bd 5e3f 773d 9c15 313d eb81 19be
000000f0: dc26 c63d 243f 2abe 5cfa ba3d ace4 86be
00000100: 145a 09bd 70f9 a5bd eda9 643c 3652 413c
00000110: 615b c5bd 5b47 20be 18d0 1bbd 469f 193d
00000120: 3760 b83d 0528 dabd a276 47be 8453 c2be
00000130: f174 84bd 0c4f f510 e692 08be 1592 153e
00000140: a961 073d 8915 efbd e649 a73d 6a71 12be
00000150: f651 053e 85db 123d c654 9abd 4679 7abc
00000160: 3f8d 2abd aec3 463d d4fc 05be 0219 1c3c
00000170: 4b45 9f3d ae55 0fbd 5cb9 2dbe b30a 933d
00000180: 1bf3 c5bc f2a0 eebd fb11 f9bd 5ae4 13be
00000190: b518 a1bd 7a9a dcbd f0b7 de3d 83e7 adbd
000001a0: b060 04be 0e9c 073d 9f36 1cbe 8e17 8cbc
000001b0: 01d0 4ebe 3a37 f1bd 3780 073e ecb4 323e
000001c0: 2900 85bd b4fc d0bd d55b b23d 798f c2bd
000001d0: 6a69 0dbe 2b37 24be 0c1b 09be 370f 06be
000001e0: 9239 373c 3a69 9fbd beac 033e b769 73be
000001f0: 976d e2bd 5763 0ebd b5bc 26be e18f 47be
00000200: 6295 9f3d 5bca 01be 2c9f 753c 3048 293d
00000210: 75ec 59be 7f24 f1bc 4483 933d 8f5d 0cbe
00000220: 7642 5cbe b6c4 8d3c 52a2 03be ceb0 ae3c
00000230: b747 9abc 0e37 49be d1da 453d 3d6e 3cbe
00000240: 2c65 c1bc 9af7 92bd f5ab e3bd 6d2f 043d
00000250: fc09 78bc 05fe 33be 8233 6abd 8791 40be
00000260: 6352 963b 505d 94bd fa1a bd15 02a7 70be
00000270: 19a7 533d ca00 acbc 012e 0a3e be1b 5c3e
00000280: 33e9 053e 7659 0dbe 57fd 30bd cbe8 fbbc
00000290: 696f 47be afdc a63d a261 35bc 5ddc c03d
000002a0: af68 5fbd 198f febd fbe0 343c 888b 683b
000002b0: 8ec8 35bc cf5e 183d 871a 65bd d4db ebbb
000002c0: 9e0b 4abe d52c bfbd dc37 ac3d 5bea 3bbe
000002d0: 5d93 f73d f7dd 153d baa8 c0bd 04e2 1dbd
000002e0: d383 2a3c 5722 853d 3736 c5bc 0a81 f6bd
000002f0: b808 e9bc ce0d 0abc 7a92 a13e 4155 b63d
00000300: d99d ed3d eacd 9d3d d31f bbbc fcb1 883c
00000310: 0e5f 87be c3cc 66be c777 983c 008b 083e
00000320: 0f22 b3bd b9d5 7bbe b5d0 003d 689c 4c3d
00000330: ecc2 013d d3d1 4bbe 0f25 9cbc cfe5 f1bd
00000340: 6c66 f9bd e4a1 1c3d acbe ad3d 181d e5bc
00000350: 58a6 f7bc 66ca 29bd 3ca1 c8bd 2e92 ca3d
00000360: 26aa 963c 6b68 f0bd 0135 603d 598b 663d
00000370: a78e c5bc 6784 d03c bf38 ba3c 161d 50bb
00000380: c386 3e3d 3343 483d 1b57 fe3c 75ac 50be
00000390: 3a17 2bbd 68b6 a03e c0c2 b4bd 7056 e693
000003a0: db95 15be 4ed3 653e 5e76 153e f772 58bd
000003b0: 3aee 123d fcdf ecbd 93e5 37bb a183 0b3e
000003c0: a023 e4bc 0f89 843d d74d a8bd cb6c 123e
000003d0: 0b89 adbd 3967 ac3d 96b7 e23d 1233 81bb
000003e0: eeca fabc 528d 573e 902f a6bd 6b3b d8bd
000003f0: 6df7 38bc bff7 f0bc 3da9 0cbe 80d7 f7bd
1.3982744e-26 -0.10875988 0.029361641 0.16251908 -0.36213425 -0.15194406 -0.1829722 0.16250886
0.30700064 -0.17288712 0.26695085 -0.4109998 0.17733195 -0.08118162 0.14618045 0.13538487
-0.01435866 0.00095942 0.119148694 -0.010187004 -0.1489696 -0.03922887 -0.076291904 0.018752981
-0.14761958 0.18218167 -0.12194745 -0.13587913 0.21869813 -0.18872628 0.22232616 -0.14837283
0.07286813 -0.0019864014 0.04184454 0.108106636 -0.2592804 0.016625792 -0.07970172 -0.118410476
0.022881486 -0.07414304 -0.043455847 0.31708422 0.048451237 -0.23364769 -0.043875005 0.3166948
0.12975837 -0.15555699 -0.17117438 -0.06796701 -0.09545657 0.08757895 0.1984956 -0.037761074
-0.041322783 0.060363166 0.0432335 -0.14990966 0.096753806 -0.16625649 0.091297835 -0.26346338
-0.03353317 -0.08104217 0.013956529 0.011799386 -0.0963657 -0.1565222 -0.03804025 0.03750541
0.090027265 -0.10652164 -0.19478849 -0.37954342 -0.06467617 9.675725e-29 -0.13337287 0.14606507
0.03305212 -0.116740294 0.08168392 -0.14301077 0.13019547 0.03585388 -0.075357005 -0.015287703
-0.04163861 0.04852646 -0.13084728 0.009527447 0.077768885 -0.03499382 -0.1696524 0.07179775
-0.024163773 -0.11651792 -0.121616326 -0.14442578 -0.078660406 -0.107716516 0.10874927 -0.08491423
-0.12927508 0.03310781 -0.15255211 -0.017101076 -0.20196535 -0.11778112 0.13232504 0.17451829
-0.06494171 -0.10204449 0.08708922 -0.095000215 -0.13809744 -0.1603667 -0.13389224 -0.13091742
0.011183159 -0.07783742 0.12858865 -0.23770796 -0.11056059 -0.034762707 -0.16282924 -0.19488479
0.077921644 -0.12674849 0.014991563 0.04132861 -0.21281607 -0.029436348 0.07202771 -0.13707565
-0.21509728 0.017305713 -0.12854889 0.021324541 -0.018833024 -0.19649908 0.048304383 -0.18401428
-0.023607813 -0.071761325 -0.111167826 0.03227179 -0.015139099 -0.1757737 -0.057178028 -0.18805514
0.004587458 -0.072443604 7.6379054e-26 -0.23501208 0.05167303 -0.02099647 0.13494112 0.21494958
0.1307724 -0.13803658 -0.043210354 -0.030750653 -0.19476093 0.08147561 -0.011070641 0.09417031
-0.054543193 -0.124296375 0.011039968 0.0035483558 -0.011095179 0.03719979 -0.0559335 -0.0071978364
-0.19730994 -0.09334723 0.08409092 -0.18351118 0.12088654 0.036588635 -0.09407182 -0.038545623
0.010407406 0.065006904 -0.024073703 -0.12036331 -0.02844654 -0.008426143 0.31557065 0.0890298
0.11602373 0.077052906 -0.022842323 0.016686432 -0.26439708 -0.22539048 0.018611802 0.13334274
-0.087467305 -0.24593247 0.03144904 0.049953848 0.031680033 -0.1990426 -0.01906064 -0.11811411
-0.121777385 0.03824033 0.084836334 -0.027967975 -0.030230686 -0.041452788 -0.09796378 0.09891163
0.01839168 -0.11738666 0.05473805 0.056285236 -0.024115874 0.02545376 0.022732137 -0.0031755618
0.046515238 0.04889221 0.031047394 -0.20378287 -0.041770197 0.31389165 -0.08826208 -5.8145397e-27
-0.14607947 0.22443888 0.14595935 -0.052844014 0.03587172 -0.11566159 -0.002806042 0.13624431
-0.027849019 0.06471454 -0.08217972 0.14299314 -0.084734045 0.08418126 0.110701725 -0.0039428556
-0.030614343 0.21050003 -0.081145406 -0.10558208 -0.01128946 -0.02941501 -0.13736434 -0.1210165

network.0.bias f4 [128]
00000000: 8635 ab32 4e46 8fb1 f2df da32 5588 5f31
00000010: d76e cf31 54b1 d6b3 2c3b 2ab1 5ce1 9431
00000020: 52fe b3b2 ea1b 4933 a13a 02b2 312a 8130
00000030: 1670 3cb2 9526 c332 c567 92b2 de2d ebb2
00000040: a884 b932 3f3d d3b2 abca 0eb1 a4b9 a5b3
00000050: 54ce 3234 c7dc d4b2 c2c7 e6b2 53ad 13b3
00000060: d366 adb3 1826 9730 8289 e231 b5c9 57b3
00000070: d877 f0b3 c840 1934 cb84 db32 433d 3032
00000080: 5226 ffb3 7e1e 85b2 73dd 7934 5499 7a34
00000090: e65f 45b3 aa7d fd33 f6a5 20b1 7208 e932
000000a0: c3e6 4133 cc5d cf30 394b 01b4 0181 a7b2
000000b0: 5ddd 76b2 2e29 f032 db96 39b2 0fc5 3233
000000c0: 35c7 f8b3 d0a2 35b1 fa70 4db1 8d14 8bb3
000000d0: 2e2f 1b33 2685 5d31 77c8 49b2 daf0 ab32
000000e0: 93ba 7fb3 0c87 25b1 e0c9 1234 5b36 48b2
000000f0: 45a0 a332 b32e 3c33 4503 84b3 9327 3531
00000100: 20e1 0db1 1c52 eb32 5e8d c4b1 fbb2 b8b2
00000110: c269 a932 d70c 83b1 839e f0b1 d3ab dbb3
00000120: 9dfd 0fb2 bfe0 b3b1 372e 1532 893c 02b3
00000130: 81b5 f2b3 d24d cc32 6d9b e432 c4cf edb3
00000140: c983 3b34 53c6 e233 71b1 3cb2 6761 efb2
00000150: 108e 8fb0 76da 6eb3 881e 9932 5d33 28b3
00000160: 4f4b 7d31 634f 6d30 1a3e 1533 1cce 5333
00000170: eda3 c9b0 fc1f 7533 d718 f6b3 ae3a 2cb1
00000180: 15bb 8a32 3439 7734 3212 0632 73ff e9b0
00000190: a3ee 9531 e960 9a33 fb18 9db2 9e88 27b4
000001a0: df83 8bb3 5acc 3c30 71ea 37b3 d494 fbb2
000001b0: d8ac 2833 0133 d932 2c37 aab1 32a1 00b4
000001c0: c4df 5cb2 5867 8432 f7c9 0932 e0a7 8632
000001d0: 9387 6832 bcda 94b3 73d4 a5b2 e0dc a032
000001e0: d6e9 7f34 c81c 05b4 1ad5 36b4 0044 d7b1
000001f0: 1fe2 7ab3 c8b0 5931 afa6 d1b1 255a 2333
1.993136e-08 -4.1698405e-09 2.5480379e-08 3.2528267e-09 6.037094e-09 -9.997407e-08 -2.4771891e-09 4.3329873e-09
-2.0953994e-08 4.6824347e-08 -7.580327e-09 9.397977e-10 -1.0968526e-08 2.2718533e-08 -1.7043826e-08 -2.7378459e-08
2.159716e-08 -2.4591484e-08 -2.0778923e-09 -7.717179e-08 1.6652604e-07 -2.4780446e-08 -2.6866363e-08 -3.4383742e-08
-8.074644e-08 1.0997523e-09 6.5930985e-09 -5.024204e-08 -1.119767e-07 1.4272803e-07 2.5555343e-08 1.0258478e-08
-1.1881333e-07 -1.5497104e-08 2.3270495e-07 2.3338845e-07 -4.5954856e-08 1.1804089e-07 -2.3377402e-09 2.712861e-08
4.514619e-08 1.5087891e-09 -1.2041427e-07 -1.9500023e-08 -1.4369417e-08 2.7958404e-08 -1.0802718e-08 4.162308e-08
-1.15846355e-07 -2.6431515e-09 -2.9895646e-09 -6.47643e-08 3.613166e-08 3.2235419e-09 -1.174532e-08 2.0016547e-08
-5.9541502e-08 -2.4087425e-09 1.3670751e-07 -1.1653891e-08 1.904858e-08 4.3814634e-08 -6.147324e-08 2.6361462e-09
-2.064617e-09 2.739494e-08 -5.7204224e-09 -2.150181e-08 1.9722282e-08 -3.8140615e-09 -7.00294e-09 -1.0229237e-07
-8.3813605e-09 -5.2351363e-09 8.6834495e-09 -3.032304e-08 -1.13020185e-07 2.3784114e-08 2.6613373e-08 -1.1073965e-07
1.7463675e-07 1.056002e-07 -1.0983386e-08 -2.7867555e-08 -1.0444996e-09 -5.5612382e-08 1.7825428e-08 -3.9162263e-08
3.6859154e-09 8.6332913e-10 3.4748247e-08 4.931472e-08 -1.4671265e-09 5.7072597e-08 -1.1459786e-07 -2.506265e-09
1.615039e-08 2.3024478e-07 7.803964e-09 -1.7025584e-09 4.3636006e-09 7.188812e-08 -1.8288565e-08 -1.5602788e-07
-6.496679e-08 6.86844e-10 -4.282123e-08 -2.9287925e-08 3.927275e-08 2.5285319e-08 -4.9539235e-09 -1.1979571e-07
-1.2856564e-08 1.5413818e-08 8.020371e-09 1.5675994e-08 1.3535003e-08 -6.9315746e-08 -1.9305139e-08 1.8726894e-08
2.3833795e-07 -1.2397061e-07 -1.7027597e-07 -6.2650543e-09 -5.8413317e-08 3.1678145e-09 -6.1016503e-09 3.803338e-08

network.1.weight f4 [128]
00000000: bb10 ae3f c805 923f 4a3e 883f bbbf 8f3f
00000010: e39e 963f ed38 963f 47a3 9d3f 3f16 913f
00000020: e771 853f 5381 9d3f d208 963f 9cb4 983f
00000030: 4a28 a83f 32db 953f 7db1 a03f 0aae 8a3f
00000040: 2ccc 983f fd36 a73f 2a53 973f 39b4 a13f
00000050: 5702 b33f 8d90 8d3f 58a9 ae3f bab2 8e3f
00000060: 1f16 873f 7814 7c3f 8995 9d3f c28b a93f
00000070: f2d7 e23f 99b0 c03f 1e23 b23f e8d0 963f
00000080: e389 b93f d11f 953f 4602 ca3f d205 b53f
00000090: 8b9c 9c3f b2c2 a43f e620 913f 05ef 893f
000000a0: 035c a13f d0c5 7c3f 25b3 9e3f 9917 9b3f
000000b0: 0cc2 9a3f aa69 a13f 5387 9d3f 3e3e c03f
000000c0: 2f77 c13f c16d ac3f 8075 983f f046 953f
000000d0: bc2a 843f 5a61 a73f e3fb 903f dcaa a13f
000000e0: ae4f 903f 8f18 a03f 38ee b73f d0d4 9b3f
000000f0: b866 983f 1065 a53f d2e0 ab3f 2c2c ab3f
00000100: bec4 a33f cca3 a63f 770f a13f 23ee 8f3f
00000110: 70f5 9a3f 8bb9 803f 33dd 943f e926 9c3f
00000120: 60e4 b53f 59a2 8f3f 0c65 8f3f 473e 943f
00000130: 7cfa a13f f2f6 983f db86 873f 92d7 c93f
00000140: 29fa b73f 204a a73f 7486 8f3f 8d0b 9f3f
00000150: c1ad 9a3f ce57 ae3f c50a 943f cbbc a03f
00000160: cb42 8c3f fb67 923f c53c a53f 410c 993f
00000170: 30cb 8f3f 52ff ab3f 7f1b a63f 5283 963f
00000180: cbee 7d3f d806 b23f 5445 843f 39b6 8b3f
00000190: 7183 a23f f5b7 a73f dc9d 9a3f caaf ae3f
000001a0: 8467 9a3f 55c1 a03f c309 9b3f 41e4 8d3f
000001b0: 7cf5 b63f 867d 9b3f 76cb a63f 7669 b03f
000001c0: 5948 a03f 2e67 963f f6b4 903f f53e a23f
000001d0: e15b 993f 87da a73f 9c36 973f 9c37 9e3f
000001e0: 672b b43f f941 9e3f ee47 ad3f 1c1b 883f
000001f0: 5bf0 a13f bf18 a83f c078 a83f 955c 923f
1.3598856 1.1408014 1.0644009 1.1230386 1.1767238 1.1736122 1.2315453 1.1334914
1.0425385 1.2305092 1.1721442 1.1930118 1.3137295 1.1707518 1.2554165 1.0834363
1.1937308 1.3063656 1.1822255 1.2633125 1.3985089 1.1059738 1.364543 1.1148293
1.0553626 0.9846873 1.231126 1.3245776 1.7722151 1.5053893 1.3916967 1.1782503
1.4495205 1.1650335 1.5781944 1.4142401 1.2235273 1.2871916 1.1338165 1.0776068
1.2606205 0.9873934 1.239842 1.2116576 1.2090468 1.2610371 1.2306923 1.5018995
1.5114497 1.3470994 1.1910858 1.1662273 1.0325541 1.3076584 1.132687 1.2630267
1.1274316 1.2507495 1.4369574 1.217432 1.1906347 1.2921467 1.3427985 1.3372855
1.2794416 1.3018737 1.2582844 1.1244549 1.2106152 1.0056623 1.1630005 1.2199374
1.421032 1.122142 1.1202712 1.1581506 1.2654567 1.1950362 1.058803 1.5768912
1.4373218 1.3069496 1.1212907 1.24254 1.2084275 1.3620546 1.1565787 1.2557615
1.0957884 1.1437982 1.290917 1.1956865 1.1233883 1.3437293 1.2977141 1.1758826
0.99192494 1.3908339 1.0333657 1.0914985 1.2696363 1.3103014 1.2079425 1.3647397
1.206284 1.2559 1.2112354 1.1085283 1.4293666 1.2147682 1.3030841 1.3782184
1.2522079 1.1750238 1.1305225 1.2675463 1.1981164 1.3113564 1.181354 1.2360721
1.4075745 1.2363883 1.3537576 1.0633273 1.2651476 1.3132552 1.316185 1.1434504

network.1.bias f4 [128]
00000000: 55a7 9f3e 029b e93d ff6e 683e af81 343e
00000010: f3b8 e73d 69b8 4c3e 9e98 ad3e ba22 163e
00000020: fd48 e23e 1cf1 c63e 77dd 323e 2b95 023e
00000030: faf8 343e 4d31 a53e c7ce 903e f9f1 7e3e
00000040: 6821 173e 89f0 8b3e 0d55 d23d 660f ba3c
00000050: ff16 323e 0ca9 623e 3762 903d 101b e13d
00000060: 8a54 e73e 4c8c b6bb c945 533e a8e1 f53e
00000070: 06f2 793e 6e35 7c3e 0c43 6a3e 0df5 713e
00000080: 65e0 783e 7ff6 a43e 46a5 963e 6cb0 543e
00000090: 1353 fc3e a61d 943e cd7f af3d f104 573e
000000a0: c0c1 553e e4ae de3d 3f58 2a3e 276e bc3d
000000b0: 3e12 813e 1b88 8f3e 5a58 8f3e 4e27 db3e
000000c0: 69ea 253e ca29 993e 23a8 763e 6d0d 1a3e
000000d0: d1d3 243e d2d2 4b3e 3ca3 823e bb9d e93e
000000e0: e99d 543e fbc5 a33e eef1 893e ee53 5f3e
000000f0: f112 c23e 57c0 f83d 3b5f af3e 5506 303e
00000100: 1750 983e a12d 873e 4149 a73e 600b 7d3e
00000110: c7d4 553e a937 9a3d a7c1 063e 85b0 923e
00000120: b348 833e 70b8 423e 5084 483e fbec 053e
00000130: 4523 043f c1d0 5d3e 51b6 a13e 4b91 d53e
00000140: 5d69 853e 409b 7e3e cf01 453e a096 a93e
00000150: b034 6d3e 272e 9d3e 1f87 7c3e e51a ab3e
00000160: 0b24 af3e f8a2 ad3e 9b35 773e 4958 c73d
00000170: c64b ae3e f3c5 733e 81b2 4b3e 28aa 553e
00000180: a15d 643e 65b7 673e cd62 c73d e9c5 6e3e
00000190: 72d6 b93e 9fe2 623e befd cb3e 3a98 633e
000001a0: aa5d 093f c761 503e 4c60 ac3e 3dc9 5a3e
000001b0: 6985 693e cff5 763e b6c2 5d3e 1a0e 3b3e
000001c0: c26d 943e 86fa f93e c301 a93e 5fdb 973e
000001d0: 2b4e f93d 6748 7f3e a3fc 763e ec34 6e3e
000001e0: 18f8 ac3e c4a1 a93e 555a 4b3e c031 3a3e
000001f0: fde6 933e 0f6c e73c 8516 493e 280c 48b9
0.31182352 0.114065185 0.22698592 0.17627595 0.11314573 0.19992222 0.339055 0.14661685
0.4419631 0.38855827 0.17467295 0.12752216 0.17673102 0.32264176 0.2828276 0.24896993
0.14758837 0.2733195 0.102701284 0.02271242 0.17391585 0.22134799 0.07049983 0.1099149
0.45181686 -0.005570924 0.2063209 0.48023725 0.24408731 0.24629757 0.22877139 0.23628636
0.2430435 0.32219312 0.2942297 0.20770425 0.4928213 0.2892887 0.08569298 0.20997979
0.20874691 0.108732015 0.16635226 0.092006974 0.2520923 0.28033528 0.27997094 0.42803425
0.16202702 0.29914695 0.24087577 0.15044184 0.16096427 0.1990464 0.25515163 0.4562815
0.20763363 0.31986985 0.2694239 0.2180936 0.37905076 0.12146061 0.34252343 0.17189915
0.29748604 0.26402 0.32673076 0.2471137 0.2088195 0.075301476 0.1315981 0.286503
0.25641403 0.1901567 0.19581723 0.13078682 0.5161632 0.21661665 0.3158441 0.41712412
0.26056948 0.2486391 0.19238971 0.3312273 0.2316463 0.30699274 0.2466092 0.33418956
0.34207186 0.33913398 0.24141543 0.09733636 0.34042186 0.2380598 0.19892313 0.2086569
0.22301342 0.22628553 0.09735642 0.23317684 0.3629642 0.22156762 0.39842027 0.22226039
0.53658545 0.20349799 0.3366722 0.21365829 0.22804798 0.24117206 0.21656308 0.18267098
0.2898999 0.48823947 0.33009157 0.29659554 0.121731125 0.24929963 0.24119811 0.23262376
0.3378303 0.3313123 0.19858678 0.1818304 0.28887168 0.028249769 0.19637497 -0.00019078015

network.1.running_mean f4 [128]
00000000: 6141 a93b 6a66 193d 3a1e 123c d0b4 333c
00000010: f753 5a3d 8d47 5b3c ba4f 10bd d081 273d
00000020: c191 37bd d5d3 94bd e354 35bc 19d8 153d
00000030: 6ece 243d 0f9e 6cbd e0a4 3e3c 98b8 f53b
00000040: fcfe 183b 4119 efbc 705e 693d bbcb 943b
00000050: 7645 eb3b 9aee b53c fde8 893c e09d be3c
00000060: 5501 abbc 2dc0 4a3d c40d 6a3d a627 1abd
00000070: d865 0bbd a031 073c 8aef 103d 8063 f33b
00000080: eb5e b33c 7842 57bc c61b 89bc d6fc 0abd
00000090: 3b90 48bc 1029 da3b 78a7 e6bc 99a1 4e3c
000000a0: 3d9a 263c 7b6c d6bc 21de 9a3c bf23 533d
000000b0: ac85 6b3d 00ca b0bb e470 133d ee75 dbbc
000000c0: 4827 c1bc f2a5 023d df06 163d 186e 90bc
000000d0: f83e e2bc 50f7 f83b bc7c 403d d2b6 0ebd
000000e0: 30c1 cc3b f819 4e3c b489 2b3c ac71 0b3d
000000f0: f4d7 fa3c 87ae 013d be85 bdbc 1859 883c
00000100: f924 213d 00d2 87bc 8e3a dabc 5e1c 823d
00000110: ac88 833c e6d8 013d f8f8 223c 18dc fbbc
00000120: 87f8 09bd 24bb 30bd 40b0 e33c 8e51 033d
00000130: 3b77 53bd 8cc7 8b3d 919f 4cbd 5c7f 303d
00000140: 8482 1b3c 847b 07bd e8b6 58bc d18b 0c3d
00000150: f01d 30bd 889f a8bc 8e2b a0bc 13b7 173d
00000160: a1ca 34bd b01b 1bbd c6ae e13c 9421 0a3c
00000170: c899 873c 313e b93c a08b 423c 20f2 5ebc
00000180: 7005 323b e039 20bb c899 a23c 1472 db3c
00000190: 4c08 febc 3a10 c63c b6c2 20bc 0be5 1d3d
000001a0: 6589 64bd 8061 fbba e62c 18bd d8dd 193d
000001b0: 673f 85bd 467d 353d 706f 6b3d aa3f d5bc
000001c0: a369 08bd 8374 98bd f375 87bd 5752 05bd
000001d0: 648f 1e3c 80ed c53c 3c82 013d abca 883d
000001e0: 1226 cdbc cc42 9dbc c2cc fe3c 6115 20bc
000001f0: 80ff 4dbb d50e 413d 9dba 0f3c 4460 c0bc
0.0051652645 0.037451185 0.008918339 0.010968402 0.05330273 0.013383758 -0.035232283 0.040895283
-0.044816736 -0.07266966 -0.011067602 0.03658304 0.04023593 -0.057767924 0.011635989 0.007498812
0.0023345342 -0.029186847 0.05697483 0.004540888 0.0071799112 0.0222085 0.01683473 0.02326864
-0.020874659 0.04949968 0.057142034 -0.037635468 -0.034032673 0.008251578 0.035384692 0.007427633
0.021895846 -0.013138406 -0.016736876 -0.03393253 -0.0122414185 0.006657727 -0.028156027 0.01261177
0.010168609 -0.026174774 0.018904747 0.051547762 0.057500526 -0.005395174 0.035996333 -0.026789632
-0.023578301 0.03189654 0.036627647 -0.017630622 -0.027617916 0.0075978413 0.046993956 -0.03484232
0.0062486157 0.012579434 0.010469843 0.034043953 0.030620553 0.031660583 -0.023135062 0.016644046
0.0393419 -0.016579628 -0.02663925 0.06353067 0.016056381 0.03170099 0.009947054 -0.030744597
-0.03368428 -0.04314722 0.027794003 0.0320602 -0.05162738 0.0682517 -0.049956862 0.04309021
0.009491567 -0.033076778 -0.013227202 0.034313027 -0.0429973 -0.020583883 -0.019552018 0.037039828
-0.044138554 -0.0378682 0.027549159 0.008430857 0.01655282 0.022612663 0.0118741095 -0.013607532
0.0027163886 -0.0024448559 0.01984872 0.026787795 -0.031009816 0.02417766 -0.009812048 0.03854851
-0.055795092 -0.0019178838 -0.037152193 0.037565082 -0.06506234 0.044308923 0.057479322 -0.026031334
-0.033303868 -0.07444098 -0.06614294 -0.03254923 0.009677742 0.0241611 0.03161834 0.06679281
-0.025042567 -0.01919689 0.031103496 -0.009770722 -0.0031432807 0.047133286 0.008772519 -0.023483403

network.1.running_var f4 [128]
00000000: 2b68 3341 8e5b a141 b745 5340 c58f fd40
00000010: f9ce da41 900e a640 1c34 6741 47af 7441
00000020: c1ab d441 23bd 2142 5c13 b93f 074e 6941
00000030: 2974 c841 76ff 9241 a412 4541 a8b0 7140
00000040: cf83 7340 5a0e 5b41 665e f641 956c 9d40
00000050: ed02 1b40 0f16 ae3f c4e0 d340 23e5 c940
00000060: 8dd5 4641 3673 6d41 ae1d ff41 3e3f b041
00000070: f491 9a40 b4de 1e3f f83b 3741 8141 8341
00000080: aec3 0a41 8ceb 8341 2e58 b53f fbb5 b540
00000090: 98db 2a41 421c c941 1cf8 4841 3aba 0740
000000a0: 20c6 a640 5218 4340 9018 8240 a3f0 b241
000000b0: d3d9 bc41 5e9d 7941 e6e9 2741 56e6 6641
000000c0: 3637 3140 aafd 3740 cf6b 8241 91d2 3740
000000d0: 9f43 2541 0fdf 6641 6212 8341 4cff 1a41
000000e0: 2c7d bc41 51ab cf41 4c89 be3f 5273 3741
000000f0: d98e 0941 fcf1 3041 0df0 6141 813f 0341
00000100: d66b 9b41 4661 c03f 71ec 3b40 45c7 cc41
00000110: 4d44 1941 7d05 3e41 4639 d340 cb09 9b40
00000120: c149 8d40 1256 e741 75bd 1a41 17c7 0e41
00000130: ce8c 1242 386f db41 601b be41 7a31 0a41
00000140: 5d59 1c40 95b5 9240 2afc e540 a23e a141
00000150: 467a 7442 8d5d 4d40 6de3 6841 ca89 d240
00000160: 7136 d641 0f6d 0341 f35b e940 471e 5b40
00000170: e30b a641 b248 9540 9517 5941 cc25 f041
00000180: f10d 8240 b40d 8e40 ba43 b940 8f95 0941
00000190: 7d48 1c41 b2d0 a140 702c 8a40 318c 8c41
000001a0: 3495 0b42 1dd4 5241 4834 e340 0b3a a540
000001b0: d8f7 9e41 c4f9 d040 eab5 b141 cc41 5a40
000001c0: de56 9e41 9c57 3d42 cae5 1642 314a ee40
000001d0: e279 a940 79d2 2041 c2e3 0341 5910 c841
000001e0: b9bc 9e41 69b3 1140 9e01 3941 5368 2041
000001f0: 8e36 3341 726c 8341 752e 123f 19c7 9a40
11.212932 20.169704 3.30113 7.9238 27.35106 5.1892776 14.450222 15.292792
26.583864 40.434704 1.4459033 14.58155 25.056719 18.374737 12.317051 3.7764072
3.80492 13.691004 30.796093 4.9195046 2.4220536 1.3600482 6.621187 6.309221
12.427136 14.840628 31.889492 22.03088 4.8303165 0.6205857 11.452141 16.406984
8.672773 16.490013 1.4167535 5.6784644 10.678612 25.138798 12.560574 2.1207414
5.211685 3.0483594 4.0654984 22.367498 23.60636 15.60092 10.494604 14.431234
2.7689948 2.8748574 16.30264 2.872227 10.329009 14.429458 16.383976 9.687328
23.56112 25.95865 1.488565 11.465654 8.597375 11.059078 14.121106 8.203004
19.427654 1.5029685 2.9363062 25.5973 9.579175 11.87634 6.6007414 4.8449454
4.415253 28.917027 9.671254 8.923606 36.637505 27.429306 23.763367 8.637079
2.4429543 4.584666 7.1870317 20.155582 61.119408 3.208835 14.555524 6.57932
26.776583 8.214126 7.2924743 3.423723 20.755804 4.665124 13.568257 30.018456
4.064202 4.4391727 5.7895174 8.599013 9.767697 5.0567255 4.3179245 17.568453
34.895706 13.176785 7.100132 5.1633353 19.871017 6.530489 22.213825 3.410266
19.792416 47.335556 37.724403 7.4465566 5.2961283 10.051385 8.243105 25.007982
19.84215 2.2765753 11.562895 10.02547 11.200819 16.427952 0.5710214 4.836804

network.4.weight f4 [77, 128]
00000000: d42b 01be ff70 93bd 9577 3ebe d4b2 3ebe
00000010: 2344 e3bd c97d 1bbe 50aa 9abd df9f acbd
00000020: cc1f c1bd 6c78 ccbd 9056 8abd 99d7 c6bd
00000030: bf1e 8abd 2c92 18be 3846 7abd a7ca ebbd
00000040: 677d a7bd 212f 30be 5e34 2ebe 78a6 17be
00000050: d126 a5bd c6c8 dfbd 3bfb 35be 2eff 0fbd
00000060: 2e8d d0bd fb3f 2dbd 85cd d4bd 6a2a dcbd
00000070: ee1f b6bd ed2d 29be 33a3 54bd d562 29be
00000080: dcc0 f6bd 803b 28be 5076 33be 61a3 98bd
00000090: ba6f 0dbe 064b 17be f703 7bbd dc38 78bd
000000a0: 08a2 4dbe 7b6e dcbd a998 bfbd 16cd 2dbd
000000b0: 5d97 1abe 996f 0ebe 6819 20be 1ead cbbd
000000c0: 906d e0bd dff7 c7bd 7a14 03be 513d 2cbe
000000d0: 6020 1ebe ac2b 0abe af91 dcbd 870e b5bd
000000e0: be4f bfbd 3918 30be 71fd 01be b888 05be
000000f0: 1e8c 6bbd 84e2 95bd 3636 29be be9a 1ebe
00000100: 2b21 3abe f4a9 18be 531c 35be 19a9 babd
00000110: 767c 23be 5170 1bbe 8314 f4bd e206 18be
00000120: 72f4 87bd 0778 4dbd a138 42be 7033 aabd
00000130: 654d e9bd fadd c6bd 2ad6 0abe 0853 0fbe
00000140: ebe5 f4bd 38a4 a5bd 5e2f cebd 9d89 c4bd
00000150: cffb c5bd c4a3 44be 8f43 1ebe 8709 2abe
00000160: 408a 38be b478 18bd 4bd9 1dbe 1c35 31be
00000170: c8ac 2abe 5ca6 a1bd 8f2c 2bbe cd3f 3fbe
00000180: cf21 31be 99a1 eabd 8602 efbd 2c30 3cbe
00000190: 6123 2abe c691 38be 545d efbd dabb c7bd
000001a0: 8a9b c8bd 306a 05be 85c9 22be e2b4 b2bd
000001b0: 92d4 2cbe 89b4 01be 4783 1cbe 7025 eebd
000001c0: a1ef d6bd a606 50bd 1534 2ebd ec53 09be
000001d0: 1bea dbbd 67a9 34be e13c 32be d012 80bd
000001e0: 7109 babd 6a8f 1dbe 6d0f a2bd a7fa d4bd
000001f0: 3ebe e6bd 4404 b2bd 0a3d 01be b9bd 29be
00000200: 577e 2fbe 2d54 32bd f0de 81bd d67b 2dbe
00000210: 60c8 51bd 2c79 42be 23d9 73bd 744e 72bd
00000220: 3ee3 83bd d120 d3bd 8714 2ebe 5d7b 0ebe
00000230: c1a0 ccbd 6f03 afbd 2f07 8ebd 8cd5 c2bd
00000240: e9c2 b0bd 582f 2ebe 2a14 0fbe 5104 80bd
00000250: 6ac9 e5bd 9f97 5dbd 17ea 2cbe ba7c 20be
00000260: 1ad9 d8bd a887 e4bd d505 34be c0f3 b9bd
00000270: 5b05 10be d157 c8bd 41f4 d4bd 8c98 35be
00000280: 0999 36be dc47 3cbe 363c a2bd c128 28be
00000290: 8e7f 7fbd 7834 1fbe 5ac4 b9bd 138f 80bd
000002a0: c7eb 32be 583d 39be 56be c4bd cd07 27be
000002b0: 0baa 9ebd d955 c3bd 931d 86bd cdf3 09be
000002c0: 2e8b 2ebe fd42 32be e393 25be 8634 87bd
000002d0: c750 11be 6721 e2bd da47 10be c2ad 1bbe
000002e0: 01fc 96bd bf24 0ebe 6c7e 21be e9ae 5cbd
000002f0: 7dd8 a0bd 61d3 9abd 8462 75bd 7256 22be
00000300: dc6d dfbd ddc3 0fbe 593e efbd 01ff a1bd
00000310: 5f33 1bbe 648d 46bd 6ab2 fdbd 640a b8bd
00000320: 24aa eabd 6724 48be 34f9 23be a139 31be
00000330: a0e1 f3bd 1a30 37be 6db6 33be 8411 fdbd
00000340: 4d46 3abe d9ab 1dbe f821 35be ab12 a9bd
00000350: f386 25bd 7ebc f2bd 12a3 26be 288c 74bd
00000360: dd35 52bd 9590 0abe c19f 66bd fc5a e3bd
00000370: 1e9e 38be 2a73 eabd 4f34 3cbe 5376 d1bd
00000380: 9568 c3bd d9be 41be e0da 11be aec1 f4bd
00000390: 82a7 87bd ab23 1cbe f941 14be edc0 05be
000003a0: 8abf 20be cea5 11be 74ce 17be 90f0 0fbe
000003b0: bbe3 2bbe df0b cfbd e86f 0bbe 499a 1fbe
000003c0: 2d8e aebd c398 82bd bc17 f8bd 10ab 03be
000003d0: 5716 3fbe 623f 36be ea80 01be 79cd 09be
000003e0: a0aa a7bd 46a9 1ebe a183 04be cf2c 01be
000003f0: 4c27 97bd e3e5 71bd f101 2bbe 4a57 f6bd
-0.12614375 -0.07199287 -0.18600304 -0.18622905 -0.110969804 -0.15184702 -0.07552016 -0.084289305
-0.09429893 -0.09983906 -0.06754792 -0.09709091 -0.067441456 -0.1489951 -0.061102122 -0.11513262
-0.081782155 -0.17205478 -0.17012164 -0.14809597 -0.08064044 -0.10926966 -0.17771618 -0.035155468
-0.10183178 -0.042297345 -0.10390762 -0.10750277 -0.08892809 -0.16521426 -0.05191345 -0.16541608
-0.12048504 -0.16428947 -0.17525601 -0.07453037 -0.13812152 -0.14774713 -0.061283078 -0.0606011
-0.20081341 -0.1076326 -0.093552895 -0.042431913 -0.15096803 -0.13909759 -0.15634692 -0.09945129
-0.109583974 -0.097640745 -0.1280078 -0.16820265 -0.15442038 -0.13493222 -0.107699744 -0.088406615
-0.093413815 -0.1719674 -0.12694336 -0.13040435 -0.057506673 -0.07318595 -0.16524586 -0.15488717
-0.18176715 -0.14908582 -0.17686586 -0.09114284 -0.15965447 -0.15179564 -0.11917975 -0.14846376
-0.06638421 -0.050163295 -0.18966915 -0.08310592 -0.11391715 -0.097103074 -0.1355826 -0.13996518
-0.11957916 -0.08087963 -0.10067628 -0.0959656 -0.09667169 -0.19203097 -0.15455459 -0.16605197
-0.18021488 -0.037224486 -0.15414922 -0.17305416 -0.16667473 -0.07893059 -0.16716217 -0.18676682
-0.17298053 -0.114566036 -0.11670403 -0.18377751 -0.16615058 -0.18024358 -0.11687723 -0.09752627
-0.09795292 -0.13028789 -0.15897186 -0.08725907 -0.16877964 -0.12666525 -0.15284453 -0.116282344
-0.10494924 -0.05078759 -0.042530138 -0.1341092 -0.107380114 -0.17642747 -0.17406036 -0.06253588
-0.09083832 -0.1538674 -0.079130985 -0.10399371 -0.112667546 -0.0869222 -0.12620941 -0.1657628
-0.17138039 -0.043537308 -0.0634135 -0.16941771 -0.051216483 -0.18991536 -0.05953325 -0.05915685
-0.064398274 -0.103089936 -0.17000018 -0.13914247 -0.09991599 -0.08545577 -0.06934964 -0.09513387
-0.08630926 -0.17010248 -0.13972536 -0.06250823 -0.11220057 -0.054099675 -0.16886173 -0.1567258
-0.10588284 -0.11158687 -0.1758035 -0.09079695 -0.14064543 -0.09782375 -0.1039815 -0.17733973
-0.17831816 -0.18386787 -0.079216406 -0.16421796 -0.062377505 -0.15547359 -0.09070654 -0.06277289
-0.17472754 -0.18089807 -0.09606616 -0.1631157 -0.07747277 -0.095378585 -0.065486096 -0.13471909
-0.1704528 -0.17408367 -0.16169696 -0.06601815 -0.1419097 -0.11041527 -0.14089909 -0.15203002
-0.07372285 -0.13881205 -0.15770882 -0.053877745 -0.07853792 -0.075598486 -0.059908405 -0.15853289
-0.10909626 -0.1403956 -0.11681814 -0.07909966 -0.15156315 -0.048474684 -0.123875454 -0.08986357
-0.11458233 -0.19545136 -0.16013032 -0.1730714 -0.11908269 -0.17889443 -0.17550059 -0.123568565
-0.1819088 -0.15397586 -0.1768874 -0.08255514 -0.0404119 -0.11852358 -0.16273144 -0.059703976
-0.0513209 -0.13531716 -0.056304697 -0.11101338 -0.18029067 -0.11447747 -0.18379329 -0.10227647
-0.09541432 -0.18920459 -0.1424365 -0.11951004 -0.066237465 -0.15247981 -0.14478292 -0.13061877
-0.15698066 -0.14223406 -0.1482485 -0.14056611 -0.16786091 -0.10109686 -0.13616908 -0.15586199
-0.08523212 -0.06376793 -0.12113902 -0.12858224 -0.18660866 -0.17797616 -0.12646833 -0.13457288
-0.08186841 -0.1549426 -0.12940837 -0.1261475 -0.07380542 -0.059057128 -0.1669996 -0.12028368

network.4.bias f4 [77]
00000000: 9d0b 50be 6e71 59be d46f e4bd f2a7 3bbe
00000010: 5369 b3bd 0ec7 03be 6a6a 44be e5df 5cbe
00000020: 8e04 4abe e274 8abd edf8 0fbe d42c 8abd
00000030: 30b5 9bbd 9cde f0bd 2024 123e ef10 b5bd
00000040: 648e c0bd 614f d1bd 4792 dcbd 9fc7 e5bd
00000050: f09a 05bd decd aebd 43fa 27be f67a 96bd
00000060: a846 41be f6f3 98bd df18 bfbd e54f b8bc
00000070: 98fb e6bd 8ed1 b5bd c764 c9bd 4c9d 1ebe
00000080: 3ad4 62be 05ea eabd d738 30be 3f96 47be
00000090: 8ac7 063e 88fd 94bd 9e9a 20bd 1675 2ebe
000000a0: 9b51 37be bc3e 9ebd fbd8 c3bd fe22 25be
000000b0: 1417 15be 3d91 37be a7b3 39be afc1 c23d
000000c0: f4fa 33bd b931 26be 3951 a0bd a345 07be
000000d0: 153d e5bd 2b39 16be 8bea 5bbe b3bb aabd
000000e0: ec6e 9bbd 5ebe 23be 2458 ebbd 2e15 e3bd
000000f0: 0aa0 49be efd2 ad3d a180 40be bff1 dabd
00000100: a793 56be b7fa 26bd 6de4 2bbe 1c10 5bbe
00000110: 92e7 0bbe 4e21 2abe be3d 1dbe a868 0dbe
00000120: f734 a2bd a979 4bbe c676 46bd 3f80 e1bd
00000130: 1b27 d6bd
-0.2031693 -0.21234676 -0.11154142 -0.18325785 -0.087603234 -0.12868902 -0.19181219 -0.21569784
-0.197283 -0.06760575 -0.14059801 -0.067468315 -0.07602918 -0.11761209 0.14271593 -0.088411205
-0.09402159 -0.102202184 -0.10770088 -0.11219715 -0.032618463 -0.0853536 -0.16404061 -0.07347672
-0.1887461 -0.07468407 -0.09330916 -0.022499034 -0.112784564 -0.0887786 -0.09833675 -0.15489691
-0.2215127 -0.11470417 -0.17209183 -0.19490908 0.13162056 -0.0727492 -0.039209954 -0.17036852
-0.17902224 -0.077268094 -0.0956287 -0.1612663 -0.14559585 -0.17926498 -0.18134938 0.095095985
-0.0439405 -0.16229905 -0.07827992 -0.13210158 -0.11193291 -0.14670245 -0.2147619 -0.08336582
-0.07589516 -0.15990588 -0.11491421 -0.11088024 -0.19689956 0.08487498 -0.18799068 -0.10690641
-0.20954762 -0.040766444 -0.16786356 -0.21392864 -0.13662556 -0.16614267 -0.15355584 -0.13809454
-0.079202585 -0.19870628 -0.048453115 -0.11010789 -0.104566775
